pretrained_weights/LeNet_epoch=01-train_loss=0.10-val_loss=0.02-train_acc=0.97-val_acc=1.00.ckpt (torch_old, 262831 bytes, 10 tensors)

model.conv_layers.0.conv.weight f4 [6, 1, 5, 5]
000000 f2 95 5d 3e 60 b9 2f 3e 2c 4d b3 bd 56 6d 12 be
       0.21639231 0.17160559 -0.08754954 -0.14299521
000010 59 b1 a4 bd 9d b9 39 bd df 2b 37 3e 43 f3 83 bc
       -0.08041639 -0.04534303 0.17887829 -0.016107207
000020 02 cf 22 bc 2b b7 11 be 16 49 80 3e 66 a1 d7 3c
       -0.00993705 -0.1423003 0.2505576 0.026322078
000030 84 d3 4d be fc ab 9a be 2c 84 43 be 86 57 8f bd
       -0.20100218 -0.3020934 -0.19093388 -0.06999116
000040 d6 6b 53 3e 57 bf 5e bd 8b a8 e8 bd 81 9a 34 bd
       0.20646605 -0.054381695 -0.11360272 -0.04409266
000050 8d 7d f2 3c 5f e4 ea bd 96 f0 a0 be 68 2b b8 bd
       0.029600883 -0.114693396 -0.31433553 -0.08992654
000060 cc d4 36 be 23 ea 2d 3e a1 5e 2e bc 51 17 ca 3d
       -0.17854613 0.16983847 -0.0106426785 0.098677285
000070 75 fc ec bd 10 e6 15 be 2d 26 9d bc 0c 2d 33 3e
       -0.1157159 -0.14638543 -0.019183243 0.17497653
000080 d7 47 38 3c 68 ca 08 be 98 66 95 be e8 95 10 be
       0.011247597 -0.13358462 -0.29179835 -0.14119685
000090 8f 53 e7 bd 71 c1 c1 bd f7 1c ac bd 95 e7 0f bd
       -0.112952344 -0.09460724 -0.08403962 -0.035132963
0000a0 00 bb fa bc 56 b5 80 3e 35 70 6c bd ae 59 c4 3d
       -0.030606747 0.25138348 -0.057724196 0.095874175
0000b0 37 17 92 bc 0a fd 86 3e da 1d 13 3d e5 72 99 3e
       -0.017833335 0.26364928 0.03591714 0.2997047
0000c0 32 3f 7a 3e f8 0c 8e 3e e0 c1 6f 3e f0 4c 1f 3c
       0.2443817 0.2774427 0.23413801 0.009722933
0000d0 73 a8 af bd df 6c 24 be 23 9a af 3d 05 2f ac 3b
       -0.08577051 -0.16057156 0.08574321 0.0052546286
0000e0 a2 3b 0c 3e 47 f9 b4 3d 6e 9a e1 bd 4e 66 39 3d
       0.13694623 0.088366084 -0.11015783 0.04526358
0000f0 de ba f0 3b f0 cb 27 3d 6f 42 92 bd 3d 8a 54 3e
       0.007346495 0.040965974 -0.071415775 0.20755859
000100 34 64 b0 bd d3 20 a5 3d e2 5a 2e 3e d2 a7 e1 3b
       -0.08612862 0.08062901 0.17026857 0.006886461
000110 f7 b1 8a 3e 7e 3a ac bd 7f fe 43 3e 72 11 c5 3d
       0.270889 -0.08409594 0.19140051 0.09622468
000120 99 a9 82 3e 54 d8 76 3e 24 80 38 3e 9e ea 29 be
       0.25520018 0.2410596 0.18017632 -0.16593406
000130 d3 fc b4 bd d9 58 c9 3d 8b 1d 92 3d 80 ae 25 bb
       -0.08837285 0.098313995 0.07134541 -0.0025281012
000140 93 b7 96 be ef 85 d1 bd d6 86 7f 3e b5 bb 80 3e
       -0.2943693 -0.10230624 0.2495378 0.2514321
000150 cc 63 fe bc c9 6e 2d be e2 c7 ea bd 8c f1 a3 3e
       -0.031053446 -0.16936792 -0.11463906 0.32020223
000160 07 70 a6 3e ce 82 8d 3c 4d 53 37 be 89 70 6d 3e
       0.32507345 0.017274287 -0.1790287 0.2318746
000170 79 53 41 3e 9b 52 7b 3e c2 3c 37 bd 86 7c 9c 3b
       0.18879499 0.2454323 -0.044735678 0.0047755865
000180 c8 3f 62 3d 9b 98 38 3e 6d fd ca 3d 07 b3 3c 3c
       0.055236608 0.18026964 0.099116184 0.011517293
000190 9b c0 b4 bd 3d 08 95 3d da 68 d3 3d 06 d1 38 3e
       -0.08825799 0.07276962 0.10322733 0.18048486
0001a0 cf b7 6a 3e b0 34 2b bc 53 9f a0 bd 5b c3 a3 3d
       0.2292168 -0.010449573 -0.07842889 0.079962455
0001b0 3c 36 48 3e bd 7a 28 3e 17 2a 20 3e 42 35 4a bd
       0.19551939 0.16453071 0.15641056 -0.049367197
0001c0 43 01 99 bd ce fd 0e 3e 46 64 ff 3d 83 97 2e 3e
       -0.07470944 0.13964006 0.124702975 0.17049985
0001d0 7b bd 2d bd 24 6b 8c 3e 82 09 d3 bb 2f db dc bd
       -0.04241703 0.27425492 -0.0064403424 -0.107839935
0001e0 7f ed d6 3d 5d 4c f0 3c a6 3b 81 3e f9 dd 32 3e
       0.104945175 0.029333288 0.2524082 0.17467488
0001f0 b4 84 6b 3e 09 32 36 3e 29 e3 37 be 38 03 09 be
       0.22999841 0.17792524 -0.17957748 -0.13380134
000200 9e e5 ea bd 5b bd 86 bd 7b 73 7a bd 8f 3b c4 3d
       -0.11469577 -0.065790854 -0.061145287 0.095816724
000210 49 b5 60 3d 75 5c dd 3c 07 c5 f4 bd 91 db dc bd
       0.054860387 0.027021626 -0.119516425 -0.107840665
000220 7b 97 ab bd 89 11 37 3e 5a ce 89 3c ea e4 b9 3c
       -0.08378502 0.17877783 0.016822029 0.022692163
000230 44 4b 33 bd f8 7b e5 3d 4c 30 dd 3d ff 9e a0 3e
       -0.04377295 0.11205286 0.108002275 0.31371304
000240 1b d4 3e 3e 7f b4 e6 3d f2 80 19 3a 1a e1 21 3e
       0.186356 0.11264896 0.0005855701 0.15808526
000250 63 72 a2 3e af 71 20 3e
       0.31727895 0.15668367

model.conv_layers.0.conv.bias f4 [6]
000000 01 70 18 3e 0f c7 9f bd a9 ea 1c bc 66 a2 4b bd
       0.14886476 -0.07801639 -0.009577432 -0.049715422
000010 00 ab 5d 36 2b c9 18 3d
       3.3031101e-06 0.037301224

model.conv_layers.1.conv.weight f4 [16, 6, 5, 5]
000000 ac 93 42 3d 3d e7 74 3d 57 e8 5d 3d 90 68 7c bd
       0.047504112 0.05979084 0.054176655 -0.061623156
000010 a7 35 a1 3c 14 0b e8 3d 90 19 bb 3b 14 0f 0a bd
       0.019678904 0.11330238 0.0057098344 -0.033705786
000020 ab da b4 bb 81 94 75 3b 27 fa 69 3d 58 ad 03 bd
       -0.0055192313 0.0037472548 0.05712333 -0.032147735
000030 99 5a 24 3d e6 7a 32 bd 21 58 f9 3c 8f 4e e0 3d
       0.040125463 -0.043574236 0.030437531 0.10952484
000040 50 2a 35 bd b8 61 90 3d 2f 7b 59 3c 53 3d a6 ba
       -0.044229805 0.07049888 0.013273998 -0.0012683071
000050 ee 4d 0c bc b6 93 a0 3d 4f 07 ad 3d a6 7c f2 3b
       -0.008563502 0.078406736 0.0844866 0.007400113
000060 7b 94 b1 3d 1f bd 68 bc 2e a6 9f bc 43 2c fe 3a
       0.086708985 -0.014205246 -0.01948842 0.0019391853
000070 53 10 a9 3d a0 a9 a5 3d bb 4c 49 bd bc d3 86 39
       0.08255067 0.08088994 -0.04914544 0.00025716226
000080 71 cc de bc 53 ee f8 3d b0 bf 26 3e 26 83 1d be
       -0.027197095 0.12154832 0.1628406 -0.1538206
000090 a5 3e 03 be c1 6a 2d be fe b7 1d be 89 0f 0c be
       -0.12816866 -0.16935255 -0.15402219 -0.13677801
0000a0 00 2a aa bd 3c 8e 1d bd 11 ba f1 bd 7f 4c c1 ba
       -0.08308792 -0.038465723 -0.118030675 -0.0014747529
0000b0 2a a7 e2 bc 22 ec 63 3d 6a 11 e4 bc 88 07 1d bd
       -0.0276676 0.055645116 -0.027840335 -0.03833726
0000c0 35 14 b3 3d b4 79 72 3d 81 f4 b9 3d ad ae 4e bd
       0.087440886 0.059198096 0.090798385 -0.050459553
0000d0 48 bc 11 bd d1 68 d0 3c d6 f7 b0 3d d7 3a df 3c
       -0.03557995 0.025440605 0.08641021 0.027249737
0000e0 dc c2 a7 3d 74 ec 02 3e ac f1 fd 3d c9 d2 b0 3d
       0.08191463 0.12785512 0.12399611 0.08633954
0000f0 c0 05 93 3d e2 15 12 3d d3 80 ae bc 23 5d 73 bc
       0.07178831 0.0356654 -0.021301663 -0.0148537485
000100 03 27 01 bd 9b 8f 4e 3d f8 c2 b4 3c 5c 5b 3f bd
       -0.031531345 0.05042992 0.022065625 -0.046717986
000110 6d 46 c8 bd 85 ca ad bd a8 10 ef 3d 8c f7 0d bc
       -0.09779058 -0.08485893 0.11673099 -0.008664977
000120 7b e8 73 bd 3a 80 81 bd 53 e2 b3 3d 6c e3 5e bc
       -0.059547883 -0.063232854 0.08783402 -0.013604026
000130 f5 ce e0 3b 52 d3 a5 3d 6a 98 22 3d 5a b9 bb b7
       0.0068606087 0.08096947 0.039696135 -2.2378448e-05
000140 8f 60 2f bc 40 a2 46 3d aa 01 f2 ba f9 11 ce 3d
       -0.010704174 0.048494577 -0.0018463631 0.10062022
000150 58 09 10 3d 04 91 a3 bd 1b e6 ce bc dd 2f 55 3c
       0.03516516 -0.07986644 -0.025256207 0.0130119
000160 2b b2 3e bd 16 d2 2f 3c 91 0e 87 bc c0 40 36 bc
       -0.046556633 0.010731241 -0.016486438 -0.011123836
000170 0d b4 22 be c8 e4 9d bd 35 94 54 be 38 2d f0 3c
       -0.15888996 -0.07709652 -0.20759661 0.029318437
000180 57 92 e0 bd ea 94 d8 3b 73 23 17 be ed 60 b0 bd
       -0.10965412 0.006609549 -0.14759617 -0.08612237
000190 32 42 58 bd 2c 1c 0d bd 6a e8 b6 3d 30 1a 6d 3d
       -0.052797504 -0.034450695 0.08931048 0.057886302
0001a0 fd 92 b9 3b 6d e8 40 bd 31 24 35 3d 7e e3 a1 3d
       0.0056632743 -0.04709666 0.044223968 0.07904719
0001b0 94 78 18 3c 9b b3 e9 3d e1 79 af bc 77 2c f3 3c
       0.009306092 0.1141121 -0.021420421 0.029684288
0001c0 3b 10 9c 3c 42 03 c2 3d 98 3a 61 bc 4e ab fd 3c
       0.019050708 0.09473278 -0.01374688 0.030965474
0001d0 b2 02 7b 3d 4c 2e c1 bc b0 c3 91 bd 8f 07 08 bd
       0.061281867 -0.023581646 -0.071174026 -0.033210333
0001e0 4e 1c fc bb e1 df 32 bd 62 43 81 bc 2a 49 5e bd
       -0.007693804 -0.04367054 -0.015779201 -0.054268993
0001f0 03 9c 85 bd 9e fa 09 bd 94 27 0e bd 2e 0a 14 3d
       -0.065238975 -0.033686273 -0.034705713 0.03614252
000200 e2 6a 0f 3e e3 11 bf 3d dd 6a d9 bc 35 2e 1e 3d
       0.14005616 0.093295835 -0.026540214 0.038618285
000210 01 52 b4 3d 98 d0 ca 3d 89 29 a0 3d 8f 6b 9f 3c
       0.088047035 0.09903067 0.07820422 0.019460468
000220 d4 f3 dd bd 4e 3d 89 bc d7 bc bf bd 5a e0 d6 bd
       -0.10837522 -0.016752865 -0.0936219 -0.104920104
000230 4b 77 e1 bd 63 71 fb bd 47 59 0f be a2 36 48 be
       -0.110090815 -0.12277486 -0.139989 -0.19552091
000240 cd 2c bf bd 3f 30 af 3d 8f f3 9f bd aa 83 17 bd
       -0.09334717 0.08554124 -0.07810127 -0.0369908
000250 fc ea 6c 3d dc 62 dc 3b 14 78 54 3d 26 77 7b 3d
       0.057841286 0.006725652 0.051872328 0.061392926
000260 64 40 92 bd 78 ae b4 bd 39 5d db 3d 50 b1 0f 3d
       -0.07141188 -0.0882234 0.1071114 0.035081208
000270 03 d6 24 3d 03 21 3c bd 86 6b 36 3d ba e0 da 3d
       0.04024316 -0.04592992 0.044536136 0.106873944
000280 37 5e a4 3c 32 52 72 bd ca 61 43 3d 11 b1 0e 3d
       0.020064456 -0.05916042 0.04770068 0.034836832
000290 c3 33 e4 bc af 2a c7 bd f0 d3 60 bd f1 a3 68 3d
       -0.027856713 -0.09724938 -0.05488962 0.05679697
0002a0 07 ff 80 3c 07 67 8b 3c 8d 45 85 bd 63 56 3e bd
       0.015746607 0.0170169 -0.065074064 -0.046469104
0002b0 55 10 1a bd 68 ae 0d bc aa b0 af ba 14 c9 05 3d
       -0.03761323 -0.008647539 -0.001340409 0.032662466
0002c0 3d 96 a4 3d a1 d6 42 3d 7a 2a a3 bc be 86 ad bc
       0.08036468 0.047567967 -0.019917715 -0.021182414
0002d0 03 89 e6 3d f7 4c b0 3d 37 25 7c 3d 9a d4 b0 3d
       0.11256602 0.0860843 0.06155893 0.086343005
0002e0 1e 62 9b 3d a8 9c 09 bd 6f f8 22 3d 63 22 18 3d
       0.07587074 -0.033596665 0.039787706 0.03714217
0002f0 4c 5e 6f bd 99 3f 62 bd 31 36 82 3c 76 38 4b bd
       -0.058439538 -0.055236433 0.015894981 -0.049614392
000300 2f 65 96 3d c1 ca 9d 3d f8 be da 3d c2 40 66 bd
       0.07343518 0.07704688 0.10680956 -0.0562141
000310 b8 ad 3c bd 8f 47 9a 3d 3d c3 bb 3c 8c e8 fb 3d
       -0.04606411 0.0753318 0.022920245 0.12300214
000320 6a 3d a5 3c 0f 82 bd 3d be 8d 1f 3c 56 01 bc 3d
       0.020170886 0.09253322 0.009738384 0.09179942
000330 f6 1f b1 bc 8e ef a7 3d 84 03 65 3d 8f 4b 18 3d
       -0.021621685 0.08199988 0.055911556 0.037181433
000340 59 ed 0d 3d 0d c1 75 3d dd 0a 46 bd eb ca 02 bd
       0.03465018 0.05999856 -0.048350204 -0.0319318
000350 33 c2 4b 3c d6 d4 50 3c 03 1d aa 3c f9 8c cc 3c
       0.012436437 0.012746057 0.020765787 0.024969565
000360 d6 bf 77 3d 76 05 1f 3c 05 9f 40 bd 13 fa d1 3d
       0.060485683 0.009705892 -0.047026653 0.10252776
000370 2f c2 c4 bd f1 43 85 3d f2 e7 2e bd 9c ef a9 3d
       -0.0960735 0.065070994 -0.04270167 0.08297655
000380 4a 23 a2 3d 13 1f aa 3d b5 7b a0 bd d5 31 23 bd
       0.07916887 0.08306708 -0.07836095 -0.039842445
000390 18 d5 40 3d d6 8f a5 3d b3 7b 5e bd 3d b5 42 bd
       0.047078222 0.08084075 -0.054317188 -0.047536124
0003a0 5c 75 c3 bd 9b 72 c8 3d b2 11 64 bb 97 cb 88 bb
       -0.09543869 0.09787484 -0.0034800586 -0.0041746604
0003b0 f2 30 96 bc 89 a0 88 3c 89 32 3f 3c 6a 64 28 3e
       -0.018333886 0.016678112 0.011669763 0.16444555
0003c0 e3 9c 6c bd 96 fb c7 bb c2 50 f0 bd eb 40 41 bd
       -0.057766806 -0.0061029894 -0.11734153 -0.04718105
0003d0 17 53 13 3e 53 94 06 be 96 8c 6f 3d 71 aa 2d bd
       0.14387165 -0.13142519 0.058483683 -0.042398874
0003e0 42 3c fd bd a0 46 8b 3d 05 8f 8d bc 21 a8 9d bd
       -0.12365009 0.0680058 -0.017280111 -0.07698084
0003f0 76 80 d9 bc 8f f7 82 3d 6f fa 3e bd 6b ce 8a 3d
       -0.026550513 0.06394874 -0.04662555 0.06777652

model.conv_layers.1.conv.bias f4 [16]
000000 71 48 8a bb d3 ef 58 bc 73 3f 5e 3d 3d b1 8f 3d
       -0.0042200615 -0.013240772 0.05425973 0.070162274
000010 ca 54 a8 3c b8 f7 f9 3d dd 78 a8 3c ac 80 b3 3d
       0.020548243 0.12205452 0.020565445 0.087647766
000020 03 d1 df 3d 22 88 0c 3e 2e e3 d4 3d 93 03 92 3d
       0.10928538 0.13723806 0.103948936 0.07129588
000030 61 0e cf bc d7 a9 9e 3d 40 85 18 3d 25 ea 93 bb
       -0.025275411 0.07747238 0.037236452 -0.004513996

model.linear_layers.0.linear.weight f4 [120, 400]
000000 04 ef 1a bc f1 e4 af 3c 34 2c cb bb ec 40 0c 3d
       -0.0094564 0.021471472 -0.006200338 0.0342416
000010 ba d1 d8 3c 21 01 59 bd f6 a0 a8 3c 9b 7b 34 3d
       0.026467193 -0.052979592 0.020584565 0.04406319
000020 85 d8 a9 bc f5 28 32 3d 76 4e 97 bc a8 92 06 bd
       -0.020733127 0.04349609 -0.01847003 -0.032854706
000030 5d 40 45 bd e9 59 43 3d 7c 18 2c 3d b6 15 f5 3b
       -0.048157085 0.047693167 0.042015538 0.007479395
000040 07 26 19 3d 00 c6 9b b8 e8 c6 0e 3a 18 92 bd 3b
       0.03738978 -7.427856e-05 0.00054465095 0.005785238
000050 75 0d 2f bd b6 e0 15 3d 8e 0c 17 bd aa cd 31 3d
       -0.042737443 0.036591254 -0.036877207 0.043409027
000060 48 93 55 bd 92 e6 b0 3b 15 d6 d9 bc fd 33 df bc
       -0.05214241 0.00539858 -0.02659134 -0.02724647
000070 cb be fb bc e1 ec 27 3d 72 40 14 3d 4c 5b fc bc
       -0.030730626 0.04099739 0.036194272 -0.030805252
000080 b5 4f 58 3c 0a 78 9c 3a bc ac 0c 3d a0 45 ec 3c
       0.013202597 0.001193763 0.03434442 0.028841794
000090 ea db 1b bd fb e4 02 39 fe 15 43 bd 24 ef dc 3c
       -0.038051523 0.00012483068 -0.047628395 0.0269695
0000a0 38 8f 5e 3d bd 7e b3 3c 26 d6 cd 3c 44 32 bc 3c
       0.054335803 0.02191102 0.025126528 0.022973187
0000b0 e8 82 46 bc 91 aa d9 3a c8 d0 62 bc 51 e0 16 bd
       -0.012116171 0.0016606619 -0.013843723 -0.03683502
0000c0 41 d5 9b bc a2 f7 e0 3b 4d 92 01 3d 8f 91 9f bc
       -0.019022586 0.0068654576 0.031633664 -0.019478587
0000d0 bf ab f4 bc 6d 48 51 bd 8f 1f 12 bd 8f e9 52 bc
       -0.029867051 -0.05109446 -0.035674628 -0.0128730675
0000e0 8a d9 33 3d 48 27 2d 3b 88 bc e6 3c 9b 53 ea 3c
       0.043908633 0.0026421119 0.02816607 0.02860432
0000f0 eb ea 29 3c d0 2c 4a 3c 00 df 25 3d ac 35 bc 3c
       0.01037095 0.012339786 0.040495872 0.022974811
000100 cb ba 74 3c fa a6 20 bd b4 35 04 bc c8 d3 05 bd
       0.014937113 -0.03922174 -0.008069444 -0.032672673
000110 c6 5d 1a 3d c8 a9 c3 3a 7a 5b de 3c 92 76 e1 3c
       0.037687086 0.0014927918 0.027143229 0.027522359
000120 61 9e 25 3d d7 8b 20 bd f4 b0 89 bc 92 5d d0 3c
       0.040434245 -0.03919586 -0.01680801 0.025435243
000130 e5 c3 1b bd 3d 6c 12 bd 70 a7 1c bd e9 96 42 3b
       -0.038028616 -0.035747755 -0.03824562 0.0029692
000140 d8 0f fb bc 0b fd 5e bd e0 bf ed 3b c9 52 32 3c
       -0.030647203 -0.05444054 0.0072555393 0.010883995
000150 bd 86 bc bc 31 a7 03 bc 2f 5b c8 3c 99 2d 50 bb
       -0.023013467 -0.008035467 0.024457542 -0.003176546
000160 69 69 1c bd 4a f1 27 bb 1a cd a0 bb ed 2a cc ba
       -0.038186464 -0.0025625997 -0.0049072625 -0.0015576758
000170 9d d4 38 bd 26 63 31 bd 22 41 ea bb 4b d7 20 bd
       -0.04512464 -0.043307446 -0.0071488777 -0.03926782
000180 b5 9d 1d 3c 6f 22 91 3c 7b 82 32 bd 9a eb 53 bd
       0.00962012 0.017716615 -0.043581467 -0.05173836
000190 0c 5b 76 bc bf 71 b6 3c 56 31 23 3d 09 22 30 bd
       -0.015036356 0.022271035 0.039841972 -0.04300121
0001a0 45 c3 dc bc c0 78 82 bb 0c 04 3f 3c 18 36 26 3d
       -0.02694858 -0.0039816797 0.01165868 0.04057893
0001b0 ec 33 9b 3c 2c 29 3a bd 08 4f 41 bd 6b d9 4a 3d
       0.018945657 -0.04544942 -0.04719451 0.049523752
0001c0 09 ba 2b 3d 2e 49 51 bd 9b 35 3d bd 2c d3 70 bc
       0.041925464 -0.05109518 -0.0461937 -0.014698785
0001d0 00 eb 9d bc 70 35 bd bc 2f 1b d4 39 c6 69 70 bc
       -0.019277096 -0.02309677 0.00040456044 -0.014673656
0001e0 41 55 59 3c 76 22 66 3b ae 74 37 bd f0 b4 14 bd
       0.013264955 0.0035115755 -0.04478901 -0.036305368
0001f0 2e 6d 19 bd e7 d5 d0 3c b9 51 e9 ba 6d 0e d0 3c
       -0.037457637 0.025492622 -0.0017800845 0.025397504
000200 fd a5 df 3c 1b 2c 37 3b cc 32 98 bc da 1a de bc
       0.027300829 0.0027949873 -0.01857891 -0.027112413
000210 99 7d 13 bc 31 5f cf 3b a4 df fe bc 3e 12 0e 3d
       -0.009002113 0.0063284864 -0.0311125 0.034685366
000220 93 db 55 bd ab db 2d bd c0 e9 a6 bb f3 d1 11 3c
       -0.052211355 -0.04244582 -0.005093783 0.008900153
000230 8a fd 8c 3c d9 9b 5c 3d 07 3c a7 bb 79 12 ba 3c
       0.01721074 0.053859565 -0.0051035914 0.022713887
000240 23 70 ab bc 67 3f b8 3b 27 c4 2d bd b8 31 00 bc
       -0.020927494 0.0056227925 -0.042423394 -0.007824354
000250 3a d4 21 3d 09 dd dd bb e1 64 54 bd 23 2d 12 3b
       0.039509036 -0.006770734 -0.051854018 0.0022304736
000260 f5 56 e1 bc 30 8e 92 3c 9b d9 01 3d 57 41 a0 bc
       -0.027507285 0.017890066 0.031701665 -0.019562406
000270 65 a7 da bc 75 a7 46 3d 54 f9 51 bd bc 3a 10 bd
       -0.026691148 0.048499543 -0.05126317 -0.035212263
000280 8a 13 30 3d ff 71 73 bb c0 a8 b4 bc 95 63 c3 3c
       0.042987384 -0.0037146804 -0.022053123 0.023851195
000290 31 74 4c bd c0 80 52 bd 8b 4e 24 bc 4f f1 77 bb
       -0.049915496 -0.051392317 -0.010028492 -0.003783304
0002a0 2d c9 4b 3c 4c be 68 bc de a2 5c bc 17 49 dd 3c
       0.012438101 -0.014205527 -0.013466565 0.027012391
0002b0 e4 bb 3f bd 64 de 05 bd 3f c3 1e bc c1 46 06 3d
       -0.046810046 -0.03268279 -0.009690105 0.03278232
0002c0 67 de 36 bd da 1d 98 3c e4 4e 60 bd d2 d7 d7 3a
       -0.044645693 0.018568922 -0.054762736 0.0016467518
0002d0 08 d6 0b bd d0 1e dd 3c aa 37 06 3d d3 84 31 3d
       -0.034139663 0.026992232 0.03276793 0.04333956
0002e0 3c b6 8d bc 86 e1 3e bd 77 61 0e 3d c0 82 2c bd
       -0.01729881 -0.046601795 0.03476092 -0.04211688
0002f0 0e 4d 40 bc 23 b6 ae 3c aa 79 8e bc 31 40 de 3c
       -0.011737121 0.021327084 -0.017391998 0.027130218
000300 1a e1 8f bc 2e 29 13 bd 36 ab 32 3d 5b f5 0d 3d
       -0.017563391 -0.035927944 0.04362031 0.034657817
000310 3f 07 db bc 10 a0 c2 bc 90 84 20 bd af 80 a3 bc
       -0.026736854 -0.023757964 -0.03918892 -0.019958822
000320 ef 5b 20 bd d1 25 2a bd 50 58 28 3c 48 0e 62 bd
       -0.039150175 -0.04153997 0.010274962 -0.0551894
000330 f4 6c 96 bc e5 8a 1a 3c c3 d9 eb 3c e0 1c 45 bd
       -0.0183625 0.009432529 0.02879036 -0.04812324
000340 97 12 2a 3d aa 7a ed ba 4e 2a 4b bd 54 a3 69 bb
       0.041521635 -0.0018118222 -0.04960089 -0.003565033
000350 f1 cb 25 3d fc c9 a6 3c 39 e8 bc bc 1e 4d f5 bc
       0.040477697 0.020359986 -0.023059951 -0.029943999
000360 d9 f0 2f bd f2 1e 54 bd 1e 43 47 bd ec c8 7a 3c
       -0.0429543 -0.051787324 -0.048647992 0.015306693
000370 85 bd b2 bb c0 96 d1 bc b1 48 27 bd f6 0c c5 3b
       -0.0054547214 -0.025584579 -0.04084081 0.006013508
000380 09 be c6 bb 9a 37 a8 bc 06 db cb 3c 28 f2 5b bd
       -0.0060651344 -0.020534325 0.024884712 -0.053697735
000390 2f aa 2c 3d 43 01 c7 3b 83 7c cf bc 92 b8 ae 3b
       0.042154487 0.0060731485 -0.025327927 0.005332061
0003a0 4b c3 0a 3c 69 61 60 bd e1 12 08 3c 4b ed 42 bd
       0.008469413 -0.054780398 0.008305282 -0.04758958
0003b0 3f 08 cd 3b 51 fc 07 bd 7a 87 30 bd bc aa 77 3b
       0.0062570865 -0.033199612 -0.04309795 0.0037790975
0003c0 e0 e8 87 bc 51 64 4b bd 51 35 45 bd 45 98 90 3b
       -0.016590536 -0.049656216 -0.04814655 0.004412683
0003d0 0f 7a 23 bc 3a d0 39 bd 8a ed e2 3b 0e ca 2a bd
       -0.0099778315 -0.045364596 0.0069252895 -0.0416966
0003e0 4e aa 0b bd 7a 53 fa 3b d5 06 8f 3c 0b 28 9e bc
       -0.034097962 0.0076393457 0.017459312 -0.019306203
0003f0 d9 5c c5 bc 33 60 24 3d e2 51 f5 3b 89 be ad bc
       -0.024092125 0.040130805 0.007486568 -0.021209018

model.linear_layers.0.linear.bias f4 [120]
000000 c3 c4 03 bc 63 3c 26 3d 4f 1a 82 3b 80 e3 59 3a
       -0.008042517 0.040584933 0.0039704214 0.0008311793
000010 33 82 d1 ba 47 6c 02 3a 5f 57 5b 3c fa 50 aa bc
       -0.0015984237 0.0004975241 0.01338753 -0.020790566
000020 4c d7 8c 3d b6 6b 4a 3d fb db 85 3d 1f 97 1e 3d
       0.06877002 0.049419127 0.065360986 0.03871834
000030 45 b8 50 3d 46 8a 32 bd f9 aa 85 bc d1 2e 2f bd
       0.050956983 -0.0435889 -0.016316878 -0.042769257
000040 b7 76 e5 bc a4 bd 2c 3c 3a c6 23 3d a9 e7 ae bc
       -0.02801071 0.010543261 0.039983965 -0.021350699
000050 60 be 93 3c 38 2a 2c bd 98 72 6e 3d 19 87 13 bd
       0.018035114 -0.04203245 0.058214754 -0.03601751
000060 c5 46 d8 3c 62 6e 28 bd 44 6f 23 3d 31 2e 33 3d
       0.026400933 -0.041120894 0.039901033 0.043745223
000070 67 fc 0b bd 76 ac 09 3d 71 27 0c bc 4a 0a 3c 3d
       -0.034176257 0.033611737 -0.008554325 0.04590825
000080 d2 69 53 bd 01 75 0e 3d d2 e3 3d 3d a2 f2 5f 3a
       -0.05161459 0.034779552 0.046359845 0.000854293
000090 2c bb 25 bb 51 48 2b bd 16 3d fd 3c 4c 66 c2 bb
       -0.0025288565 -0.041817013 0.030912917 -0.005932605
0000a0 f1 6b 9a 3d b6 be 45 3d 9f 99 fd 3c 32 20 22 bc
       0.075401194 0.04827758 0.030957041 -0.009895371
0000b0 c4 fa 1c bd fb e0 17 bd 65 89 91 bc c7 0e f7 3c
       -0.038325086 -0.037079792 -0.01776571 0.030158414
0000c0 4c 77 ee 3c 72 2a 15 3b c6 8c f1 bc fb a2 9c 3b
       0.02910962 0.0022760895 -0.029486071 0.004780171
0000d0 a7 45 96 3c 1c d5 21 39 4b 48 20 3d 4a c8 1f ba
       0.01834376 0.00015433546 0.039131444 -0.0006095214
0000e0 9f 03 30 3c 34 bb d0 ba f0 13 b8 3a e1 c9 51 bc
       0.010743051 -0.0015924932 0.0014044028 -0.012804479
0000f0 6b 56 6e bd f7 0a 08 3d 34 a4 13 bd 4f 43 b9 b9
       -0.058187883 0.033213582 -0.03604527 -0.00035336099
000100 35 f2 21 bd 4a 7f fd bc d6 69 c2 bb 52 66 c3 bc
       -0.039537627 -0.030944485 -0.005933027 -0.023852501
000110 ba 4f c7 3c 27 1e 6d bd 3d 15 a6 3c fc 24 1d bc
       0.024330009 -0.057890084 0.0202738 -0.009591337
000120 e1 8b 2f 3b 4d c5 e5 bc 40 d4 25 3d 17 1e 4b 3d
       0.0026786255 -0.028048182 0.04048562 0.049589243
000130 d9 e1 50 bd 44 d6 bd 3c 5d 31 c4 3c db 18 34 3d
       -0.050996635 0.023173459 0.02394932 0.043969017
000140 10 b4 31 3d ce 61 35 bd 0a d6 25 3d 88 f5 97 3d
       0.04338461 -0.044282727 0.040487327 0.07419878
000150 2a e9 07 3d b1 b6 77 bb 8d 3c a6 3a fe aa b1 3c
       0.033181347 -0.0037798102 0.001268284 0.02168798
000160 e1 2c 1e bc 90 89 25 bc 99 27 cd bc 97 7a 63 3d
       -0.009654255 -0.010103598 -0.025043296 0.055536833
000170 c6 f4 3e 3d 8e 17 41 3d be 97 03 ba 1a 72 39 3c
       0.046620153 0.047141604 -0.0005019865 0.011318708
000180 62 67 ac 3c 21 da 22 3d 58 a4 d0 3b f0 20 80 3d
       0.02104539 0.039758805 0.0063672476 0.06256282
000190 19 7c a1 3c 62 f1 b3 3b 07 2f 40 bd bb 2a 05 3d
       0.019712495 0.0054914216 -0.04691985 0.032511454
0001a0 51 c0 33 bc 10 52 37 3d dc b5 34 bd 81 50 0d 3d
       -0.010971145 0.044755995 -0.044118747 0.034500603
0001b0 de 9e 12 3d 95 3e 4e bc 1a 80 0a 3d 86 52 84 3c
       0.03579604 -0.012588163 0.033813573 0.016152631
0001c0 8f f3 1c bc 08 60 32 bd 11 c2 ce 3b 04 e6 0b bd
       -0.009579553 -0.043548614 0.0063097556 -0.034154907
0001d0 0e 08 12 bd 07 f1 4c 3d 7e 6f 31 3b 3d fb bc 3c
       -0.035652213 0.05003455 0.002707451 0.023069018

model.linear_layers.1.linear.weight f4 [84, 120]
000000 e4 d7 84 3c 66 df 89 3d 18 c5 7b bd 08 f6 25 3d
       0.016216226 0.06732063 -0.06146726 0.040517837
000010 bc 89 1a 3d 6d 3e 0f bd d1 5d ff 3c 4b 42 6f bc
       0.03772901 -0.034971643 0.031172665 -0.014603208
000020 1d 31 db 3b 6c 15 71 3b b6 8f 80 bd a1 f6 a2 bd
       0.0066892044 0.003678645 -0.06277411 -0.07957197
000030 61 45 97 3d 3c 65 94 bc 09 4b 94 bc 43 8c 00 bd
       0.0738628 -0.018114679 -0.018102186 -0.031383764
000040 5d e3 4d bd 42 6e a6 3d ff 80 40 bd 57 c7 1c bd
       -0.05026566 0.08126499 -0.04699802 -0.038276043
000050 b0 c8 ac bd ed d0 8f 3d 9b ce 6a 3d f7 c6 07 bd
       -0.084367156 0.07022271 0.05732594 -0.033148732
000060 0c 72 c2 bc f0 c6 bb bc 6f 15 82 bc f3 04 05 bd
       -0.023736022 -0.02292201 -0.015879361 -0.032475423
000070 eb c1 9d bd a8 fc 8f bd 85 31 3e bc a6 41 84 3d
       -0.077030025 -0.07030612 -0.011608486 0.06457834
000080 75 f1 9e bd c3 a3 a1 bd d3 a8 77 bd fa 2b 99 bb
       -0.07760898 -0.07892563 -0.060463738 -0.004674432
000090 53 eb 1a bd 24 f4 e1 3c 4d 06 5f bc fc c4 cd 3c
       -0.03782208 0.027582236 -0.013612342 0.025118344
0000a0 d6 8a c3 bd 41 2c 92 bd 1e de 79 bd e2 7b a7 3d
       -0.09547965 -0.07137347 -0.061002843 0.08177926
0000b0 86 ae 89 bd 63 ae 75 bd 21 ce 48 bd d1 c7 f4 3c
       -0.06722741 -0.05998076 -0.049024705 0.029880436
0000c0 aa 1f 99 bd 36 e1 55 bc 7c f6 24 3d ca a0 52 bd
       -0.074767426 -0.013054183 0.04027413 -0.05142287
0000d0 a4 bb dd bc 71 98 2e 3d 6c 55 64 bd cb 7d 2a bd
       -0.027067013 0.04262585 -0.055745527 -0.04162387
0000e0 94 2d 94 3d b6 bb a6 bd 80 b8 b1 bd ec 80 e4 bc
       0.07235256 -0.08141272 -0.08677769 -0.027893506
0000f0 24 dd 30 3d d7 fd 42 bd e7 50 a7 bc 70 8c c1 3c
       0.043179646 -0.04760536 -0.02042432 0.023626536
000100 98 57 63 bc ea e5 32 bd 10 3e 6b 3c 37 00 2b bd
       -0.013875864 -0.043676294 0.014358059 -0.04174825
000110 d4 69 c6 3c f0 06 b6 bd ed ff c0 bd f7 12 a6 3d
       0.024220385 -0.08888042 -0.09423814 0.08109086
000120 4c 38 c7 3c e5 84 a7 bd 36 a7 8a bd 6a c4 bd bc
       0.024318837 -0.081796445 -0.06770174 -0.023164947
000130 a0 a7 33 bd 9d 8d aa bd ee 56 f0 3c 1b 69 98 bd
       -0.04386103 -0.08327792 0.029338326 -0.07441922
000140 5b 46 ae 3d 4b 1e b1 bd f8 d1 b4 3d 09 80 03 bd
       0.08509513 -0.08648356 0.08829111 -0.032104526
000150 58 f1 a1 3d 28 ee f4 3c bb 8d b8 3b 07 e7 b1 bd
       0.07907361 0.029898718 0.00563213 -0.08686643
000160 63 1c 4d bc 89 29 2a bd 2b 6d 29 bd 13 a2 b9 bd
       -0.012518975 -0.041543517 -0.041363876 -0.09064116
000170 5e 90 83 3d 8b 52 ab 3d 95 cb cd 3c c1 6b 91 bd
       0.0642402 0.08365353 0.02512149 -0.071006306
000180 87 4d b9 bd 07 97 52 ba 3a a7 4b 3c f7 fa 2f 3d
       -0.0904799 -0.0008033369 0.012430007 0.042963948
000190 9e e5 0f bd 75 67 90 3b d9 5a a2 bd a4 58 a1 bc
       -0.03513109 0.0044068643 -0.07927484 -0.019695587
0001a0 c8 53 a4 3d 99 a8 8c bd 10 d0 48 3c 13 82 04 3b
       0.080237925 -0.06868095 0.012256637 0.0020219132
0001b0 99 3b 4f 3d a7 b9 d5 bd 51 71 0a 3c 64 24 35 3d
       0.050593946 -0.10435801 0.008449868 0.044224158
0001c0 4c 02 ac 3d 48 e0 26 bd a6 81 96 bd c8 ac d5 3c
       0.083988756 -0.040741235 -0.07348947 0.026083365
0001d0 42 07 a6 bd 5b 46 a1 bd 90 f9 53 3c 84 d7 81 3d
       -0.08106853 -0.07874747 0.012937918 0.063399345
0001e0 22 72 f7 3c 28 94 c2 3b 29 ae 62 3d 2d 2f a9 bd
       0.03020579 0.0059380718 0.055341873 -0.08260951
0001f0 02 f7 90 3d 3c 98 83 bd 82 4d 73 bc a9 75 c5 bd
       0.07078363 -0.06425521 -0.014850022 -0.096415825
000200 32 a1 4d bc 01 d5 1d bd ff b4 13 3d a6 63 2c 3d
       -0.012550639 -0.038533214 0.036061283 0.04208722
000210 d6 c6 84 3d be 68 81 3b 8b 96 8a bc c4 bf e7 bb
       0.064832374 0.003949254 -0.016917488 -0.007072421
000220 20 4a 6e 3c 24 77 9f 3d 39 bd 87 3d ca ae 58 bd
       0.01454404 0.07786396 0.06627888 -0.052901067
000230 59 6d 97 3d 5c 7b 17 bb c6 ab 09 bd fa d2 39 bd
       0.07393903 -0.00231143 -0.03361108 -0.04536722
000240 2f 0d 82 bd 58 66 05 bd c0 b6 71 3d a8 3d ab bc
       -0.06350171 -0.032568306 0.059012175 -0.020903423
000250 17 ee 8b bc 3e fa 35 bd 27 d2 96 3d f2 5f 8f bd
       -0.017081304 -0.044428103 0.07364302 -0.07000722
000260 ee 52 95 3d f8 47 48 bc 9b 26 e1 3d f3 de 83 bc
       0.07291208 -0.01222419 0.109936915 -0.016097521
000270 20 d0 de 3d ef 7a 1b 3d 2c 23 21 3d ab 0a ab bd
       0.108795404 0.037959035 0.039340183 -0.08351644
000280 5b 1c a3 bb af 0a 9d bb ff fd 03 bc 71 bc 9e 3d
       -0.0049777455 -0.0047925333 -0.008056163 0.07750786
000290 91 47 b4 bc 9f 96 2c bd fe 7c 2f 3d 67 dd 94 3d
       -0.022006782 -0.04213583 0.04284381 0.07268792
0002a0 f4 eb eb ba ba 91 9f bd 73 c0 c2 bc c3 fa 77 3b
       -0.0017999397 -0.07791467 -0.023773408 0.0037838675
0002b0 47 2f b5 bd e5 c0 90 3b 5b 24 21 bd bc 63 05 3e
       -0.08846908 0.004417526 -0.039341312 0.13026327
0002c0 33 20 5e bc d3 bb 92 bb f1 59 4e bd aa 55 6b 3d
       -0.013557482 -0.004477957 -0.050378744 0.057454742
0002d0 f8 36 19 3d ab 4e c0 3b 2e db 22 bc e1 b8 3b bc
       0.037405938 0.005868753 -0.009939952 -0.011457653
0002e0 ed 5d 81 3d 6a ea f0 3c ba 78 ba bd 40 7a be bd
       0.06316743 0.029408652 -0.09105058 -0.09300661
0002f0 0e 84 a2 bc 80 8f 84 3a 19 d1 ea 3c 2a 14 87 bd
       -0.01983836 0.0010113567 0.028664159 -0.06595643
000300 5c 89 2c 3c 85 8c 75 bd 17 28 40 bd 71 32 ab bc
       0.010530796 -0.059948463 -0.046913233 -0.020898076
000310 75 07 b5 3b 3b c2 d1 3d 96 91 53 3b bb 77 04 3c
       0.0055245706 0.10242125 0.003228282 0.008085187
000320 f1 b1 d6 3d 59 63 56 3d 7c 3f 72 3d 5c 9f bc 3d
       0.104831584 0.05234084 0.059142575 0.09210083
000330 9b 92 d6 3d 6a 04 4f bd 6f 39 83 3d 59 e5 28 bd
       0.104771815 -0.05054132 0.06407439 -0.041234348
000340 75 44 9d 3c 23 24 c4 3d fd c7 8d bd 79 73 be bd
       0.019197682 0.09577205 -0.0692291 -0.092993684
000350 66 ee 94 3d ba f3 ce 3d b5 a3 30 bd da ee 85 3d
       0.072720334 0.10105081 -0.043124873 0.06539698
000360 33 e0 80 bd ce 7a 51 bc 46 2c 93 3c 18 71 78 bb
       -0.062927626 -0.012785627 0.017965447 -0.0037909206
000370 dc 2e f3 3c b6 25 62 bc 95 30 59 3d 25 8b 81 bd
       0.02968543 -0.013802936 0.053024847 -0.06325368
000380 35 15 8e 3d 81 be ac 3c f8 24 b4 3d 42 4f a2 3d
       0.06937639 0.021086933 0.08796114 0.079252735
000390 b3 1f 88 3d f9 b7 92 3d 0c e1 87 bc 1e 14 62 3c
       0.06646671 0.07163996 -0.016586803 0.013798742
0003a0 b8 d6 1b 3c 20 ab 52 3b 4a 7f 3a bd 28 fc 14 bb
       0.009511642 0.0032145455 -0.04553155 -0.0022733305
0003b0 42 7b 27 3d ec 83 df bc 9c 7d 96 3d d9 06 b2 bd
       0.040889032 -0.027284585 0.07348177 -0.08692712
0003c0 98 6f ad 3d 51 0b 10 bd 86 26 18 bd 0c b4 4b 3d
       0.084685504 -0.035167042 -0.037146114 0.049732253
0003d0 5b c6 c4 3d 9f cd d1 bd fa 4e 6c bd 2b 9d 71 bd
       0.09608146 -0.10244297 -0.057692505 -0.058987778
0003e0 b7 a6 ba 3d 15 0d 81 3d 37 75 7f bd 58 79 c2 3d
       0.091138296 0.06301323 -0.062367644 0.09495801
0003f0 17 76 66 bd 40 4e f4 bc 08 3a db 3c 19 1a 44 bd
       -0.056264963 -0.029822469 0.02676107 -0.04787645

model.linear_layers.1.linear.bias f4 [84]
000000 1d cf 8f 3a 7c 3e cf 3d b6 90 94 bc 50 5f df 3d
       0.0010971759 0.1011934 -0.01813541 0.10906851
000010 f2 3f 2c bd 8f 48 d9 3d 56 f4 1c bd c7 e0 ab bd
       -0.04205317 0.106095426 -0.038318954 -0.08392482
000020 09 2c b1 bd ef f4 74 3d 7c 78 8c 3d 22 05 ad 3c
       -0.08650977 0.0598039 0.06858918 0.021120612
000030 20 4b c0 3c 8d 45 b4 3d df 79 cf 3d 0d ca ce bd
       0.023473322 0.08802328 0.10130667 -0.10097132
000040 95 a2 78 3d eb 0a a8 bc eb 66 94 bd 19 de 52 3d
       0.060701925 -0.020513019 -0.072461925 0.05148134
000050 85 7a 35 3d 85 13 93 bd 68 17 3b bd c2 0d 25 3d
       0.044306297 -0.071814574 -0.04567662 0.040296324
000060 b0 e7 f0 3d 72 35 5d 3c a7 92 ca 3c f4 cf 88 ba
       0.11762941 0.013501512 0.024728132 -0.0010437951
000070 d8 d1 40 3c 49 6c 27 3c 71 21 7b bd 00 0a 6f 3d
       0.011768781 0.010218688 -0.06131119 0.058359146
000080 f1 b2 1c 3d 37 1c b1 bd e3 ee 93 bc c8 59 b0 3c
       0.03825659 -0.0864796 -0.018058246 0.021527186
000090 48 79 bf bc 89 4c ce bd cf ab 86 bc 4b 21 22 3d
       -0.023373261 -0.10073192 -0.016439347 0.039582532
0000a0 a9 f5 f5 bc c1 e5 ab bd 8e 71 97 bd a0 33 79 3d
       -0.030024366 -0.083934315 -0.07394706 0.06084025
0000b0 be 78 db 3d 19 56 c3 3d 71 50 72 3d 65 e3 5f 3d
       0.10716389 0.09537906 0.059158746 0.05466022
0000c0 69 2a 14 3d 4b bc 8b bd f1 23 37 bd f3 d8 a8 3d
       0.036173258 -0.068230234 -0.04471201 0.08244505
0000d0 f8 de 48 bc 1a f8 b9 3c bc 46 87 bd 43 b2 c1 3d
       -0.012260191 0.022701312 -0.066052884 0.09457829
0000e0 64 c9 5e bd 6f a6 da 3d 7f 10 bc bd 3f bc 90 3d
       -0.05439128 0.10676276 -0.09182834 0.07067155
0000f0 29 bf 4f 3d ab 3c 2f 3d 94 d2 79 bc bd 33 06 bd
       0.050719414 0.042782467 -0.01524796 -0.032764185
000100 06 1c 5a 3d d4 31 7e bc 20 12 f8 3c 89 b9 af bd
       0.05324938 -0.01551481 0.03028208 -0.0858031
000110 11 44 c2 bc 5c 51 78 3c b3 66 ac 3d 56 c5 d8 bc
       -0.023714097 0.015156116 0.08418026 -0.026461285
000120 82 ce 6f bd 28 1d 99 bd fa 53 74 3d 2f 84 6b bd
       -0.05854655 -0.07476264 0.0596504 -0.057499107
000130 e4 a1 04 bb af 10 ec 3c a6 2b 27 3d 66 c6 b5 3c
       -0.0020238096 0.02881655 0.04081311 0.02218933
000140 fe 43 50 3d aa 6e 9a 3d d0 b6 22 3c 05 84 86 3d
       0.050846092 0.07540639 0.009931281 0.065681495

model.linear_layers.2.linear.weight f4 [10, 84]
000000 f9 65 ea bd 60 42 bb 3c 07 aa d9 3b 28 b0 89 3d
       -0.11445231 0.022858799 0.0066425833 0.06723052
000010 50 1f 6e bd 8a 18 cb 3d 45 85 b3 bc 83 49 4d 3d
       -0.05813533 0.0991679 -0.021914134 0.050118934
000020 7d 80 81 bd d7 33 89 bd 71 1b 4d 3c 48 80 c6 bd
       -0.06323335 -0.06699341 0.01251875 -0.096924365
000030 29 65 af bc d0 b0 e6 bd e8 12 36 b9 cd c3 72 bd
       -0.021410542 -0.11264193 -0.00017363916 -0.05926876
000040 c4 9e 36 3d 31 ea 56 bd 0b a7 51 bb 8c a9 0c 3d
       0.044585004 -0.052469436 -0.0031990435 0.03434138
000050 e1 6e 06 be fb 91 65 bd 7a 11 06 be 26 9f d6 bd
       -0.13128234 -0.05604742 -0.13092604 -0.10479574
000060 61 da c6 bd 59 70 68 bd 01 b5 e8 3d 66 c7 88 3d
       -0.09709621 -0.056747768 0.11362649 0.06678657
000070 ab 2d 6f 3d 9d 9b 02 3d 11 99 24 3d 00 24 82 bd
       0.05839316 0.031886686 0.040185038 -0.06354523
000080 5d 3d b4 bd eb 24 4d bd 0f ec 11 3d 83 ee 2d be
       -0.088007666 -0.050084036 0.035625514 -0.16985516
000090 95 75 0d 3e e4 79 bc 3d 03 68 d6 bd 5f d9 23 be
       0.13814385 0.09202936 -0.104690574 -0.16000889
0000a0 de f7 09 39 22 9a 94 bb 32 09 ec 3d 31 b9 0e 3d
       0.00013157676 -0.0045349756 0.11525191 0.03484458
0000b0 9c e7 83 3c e8 dc 54 3d e4 62 a2 3d ca ec 2a 3e
       0.01610165 0.051968485 0.07929018 0.1669189
0000c0 75 f9 e1 bd 0e 90 99 bb 04 5b c9 bd 48 bc e6 ba
       -0.11033908 -0.004686362 -0.09831813 -0.001760372
0000d0 a8 a8 c3 3d 7c 00 88 3b b2 62 3a bd a9 2f 0e be
       0.09553653 0.0041504484 -0.04550428 -0.13885368
0000e0 43 b6 2f bc d1 38 00 be 1b 6b e5 bc d4 33 3d bc
       -0.010724607 -0.12521674 -0.028005173 -0.011548001
0000f0 81 95 45 bd 46 7a d4 3d da 3e 14 3d ae 1c d9 3d
       -0.04823828 0.10374884 0.036192752 0.10601173
000100 4f 6a 61 bd 98 89 16 3e 5a 6c fa 3c 42 fb ab 3d
       -0.055033024 0.14700925 0.030569244 0.08397533
000110 31 6f 56 3b 7f 2f 06 3e 80 14 22 3c bb 81 25 be
       0.0032720084 0.13104056 0.009892583 -0.1616277
000120 d0 cb 42 3d 10 58 06 bd 42 5f ef 3d 88 d3 81 bd
       0.047557652 -0.032798827 0.11688091 -0.063391745
000130 63 33 40 3d 1b b2 91 3d e1 1e 14 bd 76 f6 f5 bd
       0.046924006 0.07114049 -0.03616226 -0.12009899
000140 d9 3e 05 3e 3e d2 df 3d 33 1d 90 3d 45 ca ac bd
       0.13012256 0.109287724 0.07036819 -0.08437017
000150 e9 80 26 bc d7 59 9f bd 7a 21 d8 bd 6d 7f cd 3d
       -0.0101625705 -0.077808075 -0.1055326 0.1003407
000160 4b fa 78 3d 9f c6 0c be 1a 82 ba 3d b2 ee 11 be
       0.060785573 -0.13747643 0.09106846 -0.14251211
000170 06 66 19 be bf 7f 93 3d 1a aa d3 bb 12 f1 cf 3d
       -0.14980325 0.072021 -0.0064594867 0.101534024
000180 00 4d 16 3d 74 25 c5 bd ed ed 17 3e 33 35 0a bd
       0.036694527 -0.09626284 0.14836855 -0.03374214
000190 2a 86 6c bc 09 f6 85 bd 61 4d 9b bb f6 77 04 be
       -0.014436284 -0.06541068 -0.004739449 -0.12936386
0001a0 60 57 10 3d 46 8f bd bc a9 c1 ab bd d5 14 83 bc
       0.035239577 -0.023139607 -0.08386547 -0.016001144
0001b0 2d e7 f6 3d 3e 4a b1 3d 65 15 d3 bd 4e ee e9 bb
       0.12055812 0.08656739 -0.10306815 -0.007139004
0001c0 a3 53 c2 3d d3 7a f3 3c 08 ac bf bd 5a c0 05 bc
       0.09488609 0.029721653 -0.09358984 -0.008163536
0001d0 1e 26 fb bd 8e 72 46 3d e0 9e 51 bd 95 f4 0d bd
       -0.1226313 0.04844909 -0.051176906 -0.03465708
0001e0 c3 1c 8b 3d 05 ce c5 bb 5b 0a ce 3d 05 58 dc bd
       0.06792595 -0.0060365223 0.10060569 -0.10758976
0001f0 99 c8 ce 3c fb dd 59 bc b1 e6 1c be c9 e2 cd bc
       0.025242137 -0.013297553 -0.15322377 -0.025132554
000200 33 21 38 bd 03 a7 74 3b 86 db 4c bd ba 10 00 be
       -0.044953536 0.0037330992 -0.05001404 -0.1250638
000210 83 81 06 be 20 f8 69 3d 26 0e 7e 3d 50 1d 4d 3b
       -0.13135342 0.057121396 0.06202521 0.003129799
000220 92 3b 39 3d 24 98 33 3d de ed cd bd 1e c6 0a 3e
       0.045222826 0.043846264 -0.10055135 0.13552138
000230 67 92 00 be 7f 82 08 bc 11 fe 00 3c 2f 64 96 3c
       -0.12555848 -0.008331894 0.007873074 0.018358318
000240 2f 39 b1 bd 4e 1b f8 3c 8b 35 5a 3d 72 a2 10 be
       -0.08653485 0.030286457 0.05327372 -0.14124468
000250 c8 2c 17 3e 47 c3 03 bc 1d 2c 01 3e ba 39 79 3d
       0.14763176 -0.008042163 0.12614484 0.060846068
000260 87 48 8e bc 3d c7 54 bc c7 24 20 3e 85 4c f1 bd
       -0.017368568 -0.012986955 0.1563903 -0.11782173
000270 39 c4 f4 bd f6 84 05 bd 8b 56 f9 bc 3c fa 12 bd
       -0.11951489 -0.032597505 -0.030436775 -0.035883173
000280 11 a0 0d be 6f 56 91 bd cc 94 dc bd 8a 11 ec 3d
       -0.13830592 -0.07096564 -0.10770568 0.11526783
000290 ca 79 19 be ba 83 1c 3d ae 2e 73 bd 0f 79 d2 3d
       -0.14987865 0.03821156 -0.05937069 0.10276996
0002a0 83 b0 c5 3c 25 05 46 3d e2 b2 66 bc d9 b3 bf bd
       0.024132019 0.04834475 -0.014080735 -0.09360475
0002b0 37 dc 84 bd e8 9b db bd 2d d0 49 bd 6f 9c e2 bc
       -0.06487315 -0.10723096 -0.049270798 -0.027662484
0002c0 de ae 3b 3d f2 de 1d 3d fe 59 04 3e 3f 92 d2 ba
       0.045821063 0.038542695 0.12924954 -0.0016065313
0002d0 b6 3b 03 3e 70 93 e3 3d 16 f1 ef bd 4a 3c dc bd
       0.12815747 0.11112106 -0.11715905 -0.10753687
0002e0 3f 59 59 bc fd f9 ad 3d 2c 3d 4a 3d c2 da c8 3d
       -0.013265907 0.08494947 0.049374744 0.0980735
0002f0 b6 28 8c bd c6 c5 c8 3d cd 73 f3 bd 98 25 10 be
       -0.068437025 0.09803347 -0.118873216 -0.14076841
000300 41 44 26 3d 6f e0 07 3c 53 99 e7 bd c4 52 c7 3d
       0.040592436 0.008293255 -0.11308541 0.09732583
000310 ef 2e b4 3d 32 9e 0d 3d f0 ef a1 bd 62 e9 04 3e
       0.087980144 0.034574695 -0.079070926 0.12979653
000320 22 21 0b be ac 0e 82 bd 8d 05 2c be 51 dd d9 3c
       -0.13586858 -0.06350455 -0.16798992 0.02659479
000330 78 3d 47 3c c7 b9 ce bd 73 11 cf bd ea 3b 09 3d
       0.012160651 -0.10094028 -0.1011075 0.033504404
000340 44 a0 4d 3c 72 b6 47 3d 89 bc b0 bd 0f 28 65 bd
       0.012550417 0.048757978 -0.0862971 -0.055946406
000350 0b 76 01 3e 98 25 dc bd a1 a0 00 be b8 04 0e bd
       0.12642686 -0.10749358 -0.12561275 -0.03467247
000360 fc ab cb 3c 7b db 8f 3d b4 50 a9 bc be 36 e2 bd
       0.024862282 0.070242845 -0.020668365 -0.110455975
000370 aa d9 44 3d 8a cd 03 3e 41 62 b5 39 8f 4f 86 bd
       0.048059143 0.12871376 0.00034596215 -0.06558143
000380 ae 38 34 3d 7e 43 c7 3b f7 81 3f 3c 39 1f 2e be
       0.043999366 0.0060810437 0.011688701 -0.17004098
000390 7e 17 19 be a3 f3 6d 3d 24 0f be 3d 26 e6 38 bd
       -0.14950368 0.05809368 0.092802316 -0.04514136
0003a0 e8 33 fa 3d 03 b0 19 3d c3 0f 9f bd a0 53 8f 3d
       0.122169316 0.037521373 -0.07766678 0.06998372
0003b0 14 b4 ef bd 79 84 93 3d 7c 2e b0 3d c2 e1 e4 bc
       -0.11704269 0.072030015 0.08602616 -0.027939681
0003c0 8f 8a 3d bd 55 67 3a bd 7d c8 04 3e f7 d8 bc 3d
       -0.046274718 -0.0455087 0.12967105 0.0922107
0003d0 1e fb d2 bd 08 ef af 3c cb e1 c0 bd 62 91 38 3c
       -0.10301803 0.021476284 -0.094180666 0.011265131
0003e0 0d dc 70 bd f1 1f 9a 3d 40 b6 98 bd 4b be 2e bd
       -0.058803607 0.075256236 -0.074566364 -0.042661946
0003f0 9c aa 0d 3d 74 a1 a4 3d 50 6b 11 bd 55 40 4b bd
       0.034586534 0.08038607 -0.03550273 -0.0496219

model.linear_layers.2.linear.bias f4 [10]
000000 c6 e2 63 39 62 28 14 bd 59 c9 90 3c 5a 0c 9d bd
       0.00021732887 -0.036171325 0.017674135 -0.076683715
000010 47 75 7b bd 0a 0b 83 bd 98 ab 32 bd d7 09 88 bd
       -0.06139114 -0.0639859 -0.043620676 -0.06642502
000020 cc 07 99 3d 12 44 35 3d
       0.0747219 0.04425437
