pretrained_weights/LeNet_epoch=08-train_loss=0.05-val_loss=0.00-train_acc=0.98-val_acc=1.00.ckpt (torch_old, 262830 bytes, 10 tensors)

model.conv_layers.0.conv.weight f4 [6, 1, 5, 5]
0.041446116 0.09907923 -0.18640788 -0.081995144 -0.12697588 0.20463088 0.18959789 0.02521648
-0.13692817 -0.28630933 0.17965978 0.16300516 0.2626125 0.17853683 0.08705127 -0.14491007
0.09318071 0.32525787 0.24072297 0.0146648055 -0.24427779 -0.11220098 -0.17671815 0.1973084
0.15168092 -0.13391714 -0.01908656 0.107809134 0.25397977 0.30920425 -0.22511823 -0.10778316
-0.0476578 0.12694468 0.06479663 -0.16486329 -0.10875586 -0.028836237 0.1919426 0.3475447
-0.33042014 -0.13408116 -0.010149861 0.104125254 0.29051358 -0.039207812 -0.20748957 -0.062329397
0.31221354 0.18323718 -0.007982165 0.103964895 0.105077155 0.08069635 0.039841793 0.08843797
0.032435525 -0.09636757 0.08340322 0.22368108 0.29095298 0.2707399 0.26451972 -0.05259619
0.13119704 0.020695504 -0.090246506 -0.0028080982 0.21515854 0.2547206 0.031208504 -0.096515656
0.10929673 -0.19201541 -0.173101 0.04493343 0.10523156 0.021543063 0.3237054 0.20556197
-0.04407908 0.022019625 0.19186047 0.19167334 0.30585608 0.062476885 0.3582704 0.37522858
0.36445498 -0.04410817 0.03453774 -0.013888823 0.20920058 -0.058623802 -0.14764093 0.013959143
0.16804588 -0.14955425 -0.36594525 -0.4415913 0.20951188 0.14966913 0.03976667 0.14755245
-0.004942692 0.31869584 0.29994866 0.3917721 0.28443092 -0.07556357 0.07600211 -0.06608465
0.15162025 0.16067633 0.23594244 -0.34278432 -0.20181039 -0.06389995 0.1996291 0.15890661
-0.41990805 -0.16978607 -0.3540597 -0.082225405 0.025214827 -0.007039677 0.049127534 0.120751694
0.25181037 0.18287316 0.229578 -0.005349467 0.22826633 0.28998622 -0.1396246 0.08658311
0.00151279 0.2468495 0.041548487 -0.052717924 0.04543334 0.20999455 0.17002311 0.24958175
-0.043407265 -0.038313214 0.04276586 0.2192109 0.14556487 -0.09355424
00000000: 67c3 293d 0dea ca3d b5e1 3ebe 12ed a7bd
00000010: f705 02be c28a 513e f325 423e cb92 ce3c
00000020: e636 0cbe 2397 92be bcf8 373e d3ea 263e
00000030: 2575 863e 5cd2 363e f047 b23d 4e63 14be
00000040: 87d5 be3d 3388 a63e 1580 763e a744 703c
00000050: f523 7abe a1c9 e5bd 9af5 34be 370b 4a3e
00000060: 3e52 1b3e 9321 09be 6b5b 9cbc 09cb dc3d
00000070: a309 823e 0550 9e3e 6585 66be 6bbd dcbd
00000080: d334 43bd c9fd 013e 18b4 843d ecd1 28be
00000090: 64bb debd f939 ecbc 9a8c 443e 61f1 b13e
000000a0: d42c a9be 924c 09be 9a4b 26bc 9f3f d53d
000000b0: 32be 943e 5f98 20bd 2578 54be 1c4d 7fbd
000000c0: 74da 9f3e 87a2 3b3e a0c7 02bc 8ceb d43d
000000d0: b132 d73d 2144 a53d 2631 233d f71e b53d
000000e0: 1ddb 043d 5c5c c5bd 4fcf aa3d a70c 653e
000000f0: caf7 943e 6c9e 8a3e 216f 873e 1a6f 57bd
00000100: 8458 063e 9e89 a93c 29d3 b8bd 1208 38bb
00000110: 8552 5c3e bd6a 823e faa8 ff3c 00aa c5bd
00000120: f7d6 df3d b09f 44be 6341 31be 1e0c 383d
00000130: a583 d73d 147b b03c b7bc a53e d67e 523e
00000140: 448c 34bd 8062 b43c 1277 443e 0446 443e
00000150: 2b99 9c3e c3e7 7f3d 386f b73e f61d c03e
00000160: d899 ba3e c5aa 34bd 7277 0d3d f28d 63bc
00000170: ad38 563e 831f 70bd 2f2f 17be e4b4 643c
00000180: 3814 2c3e c024 19be 2d5d bbbe 4118 e2be
00000190: 488a 563e dd42 193e 60e2 223d fd17 173e
000001a0: 4ef6 a1bb 1a2c a33e df92 993e 5a96 c83e
000001b0: eea0 913e 13c1 9abd ffa6 9b3d 6457 87bd
000001c0: 5742 1b3e 5688 243e e59a 713e 6d81 afbe
000001d0: 62a7 4ebe fadd 82bd 926b 4c3e 6ab8 223e
000001e0: 30fe d6be 66dc 2dbe 5047 b5be cb65 a8bd
000001f0: 538f ce3c 17ad e6bb f439 493d aa4c f73d
00000200: 4aed 803e 1a43 3b3e 7f16 6b3e 954a afbb
00000210: a6be 693e 1379 943e c0f9 0ebe 7c52 b13d
00000220: cf48 c63a 1ec6 7c3e bf2e 2a3d c0ee 57bd
00000230: 4f18 3a3d d008 573e 8a1a 2e3e 5c92 7f3e
00000240: d1cb 31bd 51ee 1cbd 412b 2f3d d278 603e
00000250: f50e 153e 5e99 bfbd

model.conv_layers.0.conv.bias f4 [6]
0.1104359 -0.14709832 -0.0032249466 0.0013821096 -0.0018221679 -0.045890607
00000000: 382c e23d f1a0 16be a059 53bb e727 b53a
00000010: cfd5 eeba caf7 3bbd

model.conv_layers.1.conv.weight f4 [16, 6, 5, 5]
-0.018600084 0.012922231 -0.016730567 -0.00073030137 0.049416505 -0.07576844 -0.05275556 -0.08810723
0.0470594 0.08488763 -0.07216893 -0.083263926 -0.044222653 0.012158116 0.025498223 -0.05922269
-0.048191868 0.0007934739 -0.10832548 0.021438885 0.007546111 -0.0535234 -0.026547678 -0.05303521
0.11988393 0.042847306 0.079480745 0.019125408 0.10247889 -0.010904313 0.04746229 -0.0521848
0.13404837 0.26510614 0.13962786 -0.1366373 -0.18733095 0.08620342 0.29816815 0.08517307
-0.07975845 0.032447994 0.012403721 0.29836106 0.21575958 -0.1113093 0.052947465 0.13061514
0.17634109 0.21806303 -0.061092637 0.026694877 0.008674778 0.05807932 0.06597318 0.051925432
0.04989315 0.11489102 0.030101327 -0.035721246 0.110851765 0.027166938 -0.034097563 -0.014605023
0.0419618 0.012760614 -0.15893063 0.02456157 0.06917522 0.08453363 0.016736088 -0.116664104
0.028947905 0.07515427 0.0756159 -0.07905593 -0.115442045 -0.15068221 -0.09866994 0.010654019
0.07519121 -0.012998444 -0.1251391 -0.004586487 0.05595031 0.0925313 0.0002951942 -0.19215062
-0.045685172 0.10215972 0.1317389 -0.18676202 -0.039480124 0.100050196 -0.0095260255 -0.11274532
-0.18258686 0.0824916 0.066715464 -0.031241868 -0.16345178 0.033733565 0.110451706 0.14129771
-0.0012402597 -0.004082144 0.01808509 0.06572545 0.14032397 -0.010095491 0.08337648 -0.015565677
-0.010451628 0.084066615 -0.11726 0.11471184 0.025608106 -0.05906891 -0.04123468 -0.16462532
-0.087660946 -0.21326895 -0.17028128 0.0104443915 -0.07606592 -0.06121111 -0.11977532 -0.08890158
-0.003152981 0.023833806 0.05997147 0.07352789 -0.057616048 0.1262988 0.10281714 0.06733961
-0.067307465 -0.077278465 0.09766927 0.11710986 -0.0372613 -0.10537138 0.0474643 0.14519392
0.1465569 -0.08362721 -0.07097452 0.12029405 0.03659295 -0.004659158 -0.03084618 -0.05010932
0.08315678 0.047916595 -0.1113719 0.013373314 0.05453504 0.016947087 0.04447746 0.011571248
0.0012564049 -0.032743152 -0.04692636 0.11445512 0.22763202 -0.032009464 -0.0328703 -0.0062616454
0.03226915 0.10029767 0.05086961 -0.08812791 -0.0019105935 -0.17886949 -0.1320764 0.060707174
0.02348471 0.053150617 -0.107778005 -0.1615548 -0.09895658 -0.078745395 0.040066842 0.120087914
-0.27272457 -0.18192703 -0.2881486 0.0020191167 0.1901841 -0.13165337 -0.11503949 -0.30620074
-0.033566374 0.17501557 -0.0045662792 -0.14880487 -0.11857119 -0.13199838 -0.077001736 0.085751735
0.05711083 0.018438326 0.04019884 -0.059783533 -0.016411673 0.044799354 0.07249954 -0.04049958
-0.039968196 -0.03451055 0.110919215 0.018671323 0.07596887 0.029086653 0.02140075 -0.04373101
0.070111424 0.024931265 0.086412676 0.12608269 0.014886372 -0.05856504 -0.14683416 -0.15263633
0.0226203 -0.01357844 0.0077795913 0.027858332 0.073236026 0.003705338 -0.043660223 0.030118225
-0.020728905 -0.0773655 -0.10330758 0.087905295 0.04027511 -0.11789094 -0.0826582 -0.07094233
0.1282775 -0.06754751 -0.038185604 0.11064413 0.14071196 -0.14323519 -0.0466344 -0.064477906
-0.06559802 0.13727325 0.1143558 0.07297176 0.054094672 -0.036700297 -0.20736335 -0.06473614
00000000: 345f 98bc c4b7 533c 8b0e 89bc b271 3fba
00000010: f668 4a3d 7c2c 9bbd 3716 58bd 9071 b4bd
00000020: 5bc1 403d 91d9 ad3d 4ecd 93bd 4786 aabd
00000030: d022 35bd d632 473c a6e1 d03c 7e93 72bd
00000040: d664 45bd 2201 503a c0d9 ddbd 9aa0 af3c
00000050: 5e45 f73b 5a3b 5bbd 847a d9bc 733b 59bd
00000060: b585 f53d a880 2f3d cdc6 a23d e3ac 9c3c
00000070: 74e0 d13d 01a8 32bc d167 423d bbbf 55bd
00000080: fa43 093e febb 873e 9bfa 0e3e a6ea 0bbe
00000090: afd3 3fbe 6b8b b03d 7fa9 983e 386f ae3d
000000a0: 6658 a3bd 30e8 043d fa38 4b3c c8c2 983e
000000b0: 14f0 5c3e 21f6 e3bd 71df 583d fabf 053e
000000c0: c292 343e ea4b 5f3e 463c 7abd 37af da3c
000000d0: a820 0e3c 95e4 6d3d f21c 873d c3af 543d
000000e0: c25c 4c3d fc4b eb3d 0f97 f63c 7150 12bd
000000f0: 4006 e33d 338d de3c e3a9 0bbd e849 6fbc
00000100: 23e0 2b3d e511 513c b6be 22be 5835 c93c
00000110: bdab 8d3d f81f ad3d 1f1a 893c 97ed eebd
00000120: 2824 ed3c 7bea 993d 82dc 9a3d 13e8 a1bd
00000130: e16c ecbd 704c 1abe 7713 cabd 328e 2e3c
00000140: d9fd 993d 6df7 54bc 7724 00be 3e4a 96bb
00000150: 272c 653d 0d81 bd3d 4bc4 9a39 22c3 44be
00000160: 6020 3bbd 1e39 d13d 90e6 063e 8b3e 3fbe
00000170: e9b5 21bd 1ee7 cc3d 0c13 1cbc 05e7 e6bd
00000180: 0df8 3abe 5bf1 a83d 1ea2 883d f2ee ffbc
00000190: e75f 27be 352c 0a3d 8134 e23d 59b0 103e
000001a0: 3690 a2ba 81c3 85bb 2f27 943c 119b 863d
000001b0: 16b1 0f3e 8f67 25bc 4ac1 aa3d 2e07 7fbc
000001c0: 4e3d 2bbc 1e2b ac3d 0326 f0bd 0bee ea3d
000001d0: 17c8 d13c 3ef2 71bd b2e5 28bd 8a93 28be
000001e0: 9587 b3bd 2d63 5abe 375e 2ebe f41e 2b3c
000001f0: 73c8 9bbd 80b8 7abd c34c f5bd 0812 b6bd
00000200: 3ea2 4ebb 1d3f c33c a5a4 753d ca95 963d
00000210: cefe 6bbd 7954 013e cb91 d23d 59e9 893d
00000220: 7fd8 89bd 2c44 9ebd d406 c83d 4bd7 ef3d
00000230: 4e9f 18bd f3cc d7bd ed69 423d b7ad 143e
00000240: 0313 163e be44 abbd 175b 91bd ba5c f63d
00000250: 7de2 153d daab 98bb 21b1 fcbc 6e3f 4dbd
00000260: 1a4e aa3d 3144 443d f316 e4bd bf1b 5b3c
00000270: 2260 5f3d 9ed4 8a3c ff2d 363d 5595 3d3c
00000280: f4ad a43a af1d 06bd db35 40bd 7267 ea3d
00000290: 5e18 693e 5b1c 03bd 02a3 06bd 7d2e cdbb
000002a0: a82c 043d dd68 cd3d a75c 503d 687c b4bd
000002b0: e16c faba 9029 37be 093f 07be 16a8 783d
000002c0: 0263 c03c 76b4 593d b7ba dcbd 9f6e 25be
000002d0: bfa9 cabd 4445 a1bd 211d 243d a7f0 f53d
000002e0: 8ea2 8bbe 144b 3abe 3788 93be 2853 043b
000002f0: 9fbf 423e 24d0 06be d399 ebbd 58c6 9cbe
00000300: e57c 09bd 4837 333e baa0 95bb 4e60 18be
00000310: 74d5 f2bd 952a 07be 16b3 9dbd 9b9e af3d
00000320: 0ced 693d f90b 973c 8aa7 243d 94df 74bd
00000330: c671 86bc 877f 373d a47a 943d e3e2 25bd
00000340: b1b5 23bd ef5a 0dbd 9d29 e33d 9af4 983c
00000350: 9195 9b3d 2247 ee3c a050 af3c 4a1f 33bd
00000360: 9496 8f3d a73c cc3c 21f9 b03d d21b 013e
00000370: f8e5 733c e5e1 6fbd b25b 16be b34c 1cbe
00000380: 354e b93c 1b78 5ebc f1eb fe3b 2837 e43c
00000390: c5fc 953d 42d5 723b 10d5 32bd 7fba f63c
000003a0: aacf a9bc ce71 9ebd ed92 d3bd b107 b43d
000003b0: 84f7 243d ce70 f1bd b448 a9bd 364a 91bd
000003c0: 2d5b 033e 5956 8abd 8268 1cbd 6499 e23d
000003d0: cc16 103e 3fac 12be b603 3fbd fe0c 84bd
000003e0: 4158 86bd 5c91 0c3e 6033 ea3d 3872 953d
000003f0: 6092 5d3d 0d53 16bd 0f57 54be 6294 84bd

model.conv_layers.1.conv.bias f4 [16]
-0.14788058 0.002647827 0.12367415 0.05850674 0.040624306 0.076482244 -0.08905973 0.069451824
-0.031368773 -0.081122175 -0.05729907 -0.029058548 -0.011508361 0.05393475 -0.07059867 -0.07575908
00000000: 026e 17be 2a87 2d3b df48 fd3d c3a4 6f3d
00000010: ac65 263d b9a2 9c3d f364 b6bd c23c 8e3d
00000020: 8b7c 00bd 6223 a6bd 6eb2 6abd 310c eebc
00000030: 918d 3cbc afea 5c3d 0996 90bd 9427 9bbd

model.linear_layers.0.linear.weight f4 [120, 400]
0.058218632 0.04796594 -0.034909707 -0.014879248 -0.24369492 -0.008815442 0.054049313 -0.02256445
-0.08384266 -0.10458104 -0.06792156 -0.04946598 -0.0013027912 0.027546149 0.02273452 0.010784999
0.01814956 0.03327714 -0.07812516 -0.055391084 -0.023961827 0.10476136 0.10113964 0.019909745
-0.08149972 0.015528837 -0.03923134 0.0068188827 0.03276003 0.17614342 -0.05199879 -0.030534783
-0.0020149448 -0.07683369 -0.041015934 0.01773044 -0.10266017 -0.039489888 -0.049765795 -0.13012561
0.02502574 0.020163335 0.06935333 3.6363173e-05 -0.012941183 -0.050233863 -0.02569926 0.09640232
-0.037625827 0.007345079 -0.010941332 0.047211003 0.046657655 0.14750418 0.24789828 -0.028441444
-0.040470127 0.0071042343 0.05134864 -0.0041101123 0.0059497193 -0.03769416 0.006283575 -0.06970788
-0.18718912 0.08400769 0.026721979 -0.017419733 -0.08026817 0.019627199 0.011121331 -0.0050765295
0.054288648 -0.01824134 -0.009363745 -0.008756171 -0.0055509643 -0.007779085 0.11947404 0.14409257
0.00127857 0.05210829 -0.01270325 0.12414781 0.2113111 -0.06847435 -0.015474883 -0.07496888
-0.07859299 -0.09675709 0.059847344 0.0029042037 -0.028774332 0.036383737 0.00040782316 0.02264478
0.017041352 0.056459427 0.04077362 0.07439931 -0.009370026 0.003148934 0.017185887 -0.07577378
-0.080438934 -0.059936177 -0.053815156 -0.064625554 -0.03018257 0.025536494 0.033448003 0.061237402
0.092997104 0.059315156 0.054715436 0.06892214 0.063034244 0.065932676 0.048665483 0.098880336
0.05271596 -0.029118849 0.059018217 -0.051798336 -0.020573825 0.11834474 0.0507195 0.0410882
-0.053819817 0.121109895 0.066249505 0.009813146 0.0014491644 -0.07334831 0.12223665 0.00983046
0.049487386 -0.00060726044 0.008874585 -0.016910397 0.08506736 0.09430835 0.075980626 -0.003849171
0.080296025 0.053071853 -0.0013952113 -0.009883118 0.06602536 0.09569184 -0.07652172 -0.016333709
0.117215775 0.10839046 -0.034482673 -0.008430714 -0.085714035 -0.056775875 -0.048951186 -0.08791895
-0.03433332 0.023196343 -0.09796427 -0.04128692 -0.055836692 0.06658087 -0.0357707 -0.009006509
0.03810062 -0.009316708 0.020511035 -0.034971375 -0.015486637 -0.027922094 -0.07840172 0.093420245
0.12362814 0.18812646 -0.03096823 -0.030352898 -0.068994366 0.07217841 0.13078696 -0.014680379
-0.08712515 -0.14274305 0.14646778 0.12211322 -0.02792909 -0.096794315 -0.11385716 0.09285571
0.0111857755 0.020422569 -0.015172271 -0.016306134 0.035702948 0.019202804 0.038182978 0.012249343
-0.2029009 -0.015392283 0.14960435 0.099250644 0.06659079 0.0043486487 0.020819994 0.054043263
0.14982216 0.04973122 -0.011388589 -0.08229437 -0.050924215 -0.047390375 -0.038020868 0.009076544
-0.033465963 -0.022490488 -0.03293299 -0.090691924 0.06724877 0.036880583 -0.011012597 0.072045684
0.0388604 0.10558238 -0.024547165 -0.020317856 -0.040794604 -0.010518106 -0.02981591 -0.067559764
0.011013601 -0.046413034 0.008833 -0.056584157 -0.0059658294 -0.020789444 0.0026613993 0.013831294
0.048984118 -0.05891693 -0.060815103 -0.010089027 -0.04982 -0.08369813 0.009200966 0.016661871
0.03497316 0.020841654 -0.011947988 0.04751668 0.02622122 0.05634451 0.07810682 -0.057166036
00000000: a976 6e3d ef77 443d 7bfd 0ebd 17c8 73bc
00000010: 298b 79be a56e 10bc d062 5d3d 15d9 b8bc
00000020: b3b5 abbd 962e d6bd 751a 8bbd d79c 4abd
00000030: 6bc2 aaba 76a8 e13c be3d ba3c 90b3 303c
00000040: 63ae 943c 9c4d 083d 1500 a0bd c3e1 62bd
00000050: 984b c4bc 208d d63d 4d22 cf3d c319 a33c
00000060: 53e9 a6bd aa6c 7e3c 0bb1 20bd ef70 df3b
00000070: 622f 063d f15e 343e affc 54bd 1524 fabc
00000080: 2a0d 04bb fb5a 9dbd 5300 28bd 6d3f 913c
00000090: 7f3f d2bd 26c0 21bd 38d7 4bbd a63f 05be
000000a0: c802 cd3c 942d a53c 1e09 8e3d a984 1838
000000b0: 4107 54bc 06c2 4dbd 4187 d2bc 946e c53d
000000c0: 8a1d 1abd fdae f03b 4643 33bc 5360 413d
000000d0: 191c 3f3d 560b 173e 0cd9 7d3e 08fe e8bc
000000e0: 01c4 25bd a3ca e83b f452 523d 1fae 86bb
000000f0: ddf5 c23b 3165 1abd 73e6 cd3b 01c3 8ebd
00000100: 81ae 3fbe 390c ac3d 0de8 da3c d4b3 8ebc
00000110: a363 a4bd 38c9 a03c 3e36 363c 0459 a6bb
00000120: c65d 5e3d dd6e 95bc 656a 19bc 0b76 0fbc
00000130: dde4 b5bb b2e7 febb ceae f43d 018d 133e
00000140: b195 a73a 816f 553d 4b21 50bc 3541 fe3d
00000150: f061 583e 483c 8cbd 5d8a 7dbc 4989 99bd
00000160: 5df5 a0bd 9528 c6bd 7d22 753d 7454 3e3b
00000170: 26b8 ebbc 1d07 153d 19d1 d539 8c81 b93c
00000180: 4e9a 8b3c 0042 673d 3d02 273d aa5e 983d
00000190: bd84 19bc 595e 4e3b 6bc9 8c3c 492f 9bbd
000001a0: 2bbd a4bd a37f 75bd 486d 5cbd 675a 84bd
000001b0: 7041 f7bc e931 d13c c600 093d 12d4 7a3d
000001c0: 4475 be3d 73f4 723d 4b1d 603d 0d27 8d3d
000001d0: 1918 813d b607 873d 7555 473d c681 ca3d
000001e0: b1ec 573d a78a eebc 16bd 713d 7e2a 54bd
000001f0: 708a a8bc ba5e f23d 40bf 4f3d 1a4c 283d
00000200: 2b72 5cbd 7708 f83d d2ad 873d 51c7 203c
00000210: e3f1 bd3a a437 96bd 3557 fa3d f00f 213c
00000220: 49b3 4a3d 8f30 1fba b566 113c ac87 8abc
00000230: cc37 ae3d bc24 c13d bb9b 9b3d 6042 7cbb
00000240: 3e72 a43d df61 593d 86df b6ba cdec 21bc
00000250: 4e38 873d 15fa c33d 6bb7 9cbd 45ce 85bc
00000260: d30e f03d d1fb dd3d b43d 0dbd fa20 0abc
00000270: d78a afbd d28d 68bd 0a81 48bd da0e b4bd
00000280: 18a1 0cbd 4206 be3c 7ea1 c8bd 791c 29bd
00000290: 04b5 64bd 8d5b 883d 4c84 12bd 0990 13bc
000002a0: 650f 1c3d 1ba5 18bc c206 a83c 253e 0fbd
000002b0: aabb 7dbc e0bc e4bc 1591 a0bd 1d53 bf3d
000002c0: c030 fd3d 39a4 403e 16b1 fdbc a4a6 f8bc
000002d0: eb4c 8dbd 46d2 933d 04ed 053e f985 70bc
000002e0: ac6e b2bd 3c2b 12be a6fb 153e 7f16 fa3d
000002f0: 8ccb e4bc 193c c6bd f12d e9bd 222b be3d
00000300: 8b44 373c 3b4d a73c 1e95 78bc 7194 85bc
00000310: 413d 123d 334f 9d3c c165 1c3d 78b1 483c
00000320: 41c5 4fbe ea2f 7cbc e231 193e ec43 cb3d
00000330: c160 883d 1c7f 8e3b b18e aa3c 785c 5d3d
00000340: fb6a 193e f7b2 4b3d 3497 3abc f389 a8bd
00000350: e995 50bd 691c 42bd c5bb 1bbd c9b5 143c
00000360: 9b13 09bd f93d b8bc bee4 06bd b0bc b9bd
00000370: b9b9 893d 1810 173d 2e6e 34bc b08c 933d
00000380: 152c 1f3d 933b d83d 2317 c9bc a271 a6bc
00000390: 3e18 27bd 2254 2cbc 7f40 f4bc c65c 8abd
000003a0: 6472 343c 981b 3ebd 4ab8 103c cac4 67bd
000003b0: 017d c3bb a04e aabc df6a 2e3b a79c 623c
000003c0: 92a3 483d e152 71bd 4219 79bd 724c 25bc
000003d0: 0e10 4cbd ed69 abbd a6bf 163c 7a7e 883c
000003e0: 0440 0f3d 1ebc aa3c 7ec1 43bc daa0 423d
000003f0: e2cd d63c 80c9 663d 78f6 9f3d ef26 6abd

model.linear_layers.0.linear.bias f4 [120]
0.045712043 0.063373595 0.0087856315 -0.03296609 0.038860552 -0.01955557 -0.045530755 0.02212586
0.0142614 -0.0057181036 0.049284942 -0.015077738 0.041530173 -0.04351152 -0.039472017 -0.019508842
0.030708272 -0.052793127 -0.011015518 0.037583042 -0.057245854 0.018718183 0.008359987 -0.05935257
-0.024537135 -0.022348225 -0.006134884 -0.027769497 0.06927009 0.011062681 0.022091899 0.009220973
0.08769514 0.04439488 -0.00058547955 0.09801499 0.012985916 0.046887234 0.0077741155 -0.005517846
0.023524225 0.057690352 0.040354986 0.021893278 -0.038634922 0.01355649 -0.03002008 -0.029846407
0.074081115 -0.020269664 0.061879035 0.04096968 0.016223177 0.029322071 0.02255518 -0.006700005
0.0761097 0.014612896 0.032780867 0.03628385 0.0628892 -0.077010095 0.021444073 -0.061124444
0.022035515 0.06545686 -0.026782721 -0.023406819 -0.0025958254 0.017701106 -0.08445309 0.021585662
0.058012627 -0.07139203 -0.025204264 -0.019497033 0.0057814573 -0.05384557 -0.036004066 0.0025774615
-0.025285196 0.018229565 0.049934376 -0.046692554 0.09919303 0.013098072 0.015426965 0.0375238
-0.004931947 0.013400752 0.07611803 0.008902279 0.00033078695 0.020741059 0.040378567 -0.04594449
0.005126488 0.005188915 -0.001930068 0.024324423 0.0714623 0.022102546 0.07015462 0.045570143
-0.013832943 -0.029373027 -0.041376147 -0.0044386354 0.05388073 0.0067797345 -0.010166348 0.023037998
-0.04895152 0.004945147 -0.019583669 0.026643101 -0.054092467 0.0202916 -0.03362846 0.0073476993
00000000: 8d3c 3b3d 04ca 813d 9cf1 0f3c 7307 07bd
00000010: 3e2c 1f3d 0133 a0bc 757e 3abd 4b41 b53c
00000020: a6a8 693c ee5e bbbb 02df 493d 9e08 77bc
00000030: 8b1b 2a3d 2339 32bd 69ad 21bd 02d1 9fbc
00000040: ea8f fb3c 9b3d 58bd 6e7a 34bc adf0 193d
00000050: a17a 6abd e056 993c 54f8 083c ae1b 73bd
00000060: 1a02 c9bc a013 b7bc 2307 c9bb db7c e3bc
00000070: 7add 8d3d 3f40 353c 12fa b43c 9013 173c
00000080: 8299 b33d 68d7 353d de7a 19ba 15bc c83d
00000090: e1c2 543c d40c 403d 02be fe3b 0ccf b4bb
000000a0: e0b5 c03c b84c 6c3d 454b 253d 8859 b33c
000000b0: a73f 1ebd 0a1c 5e3c acec f5bc 7480 f4bc
000000c0: d7b7 973d 910c a6bc df74 7d3d d3cf 273d
000000d0: 78e6 843c d734 f03c a4c5 b83c b78b dbbb
000000e0: 67df 9b3d ee6a 6f3c 3b45 063d 609e 143d
000000f0: 0ecc 803d 78b7 9dbd 7bab af3c a05d 7abd
00000100: d383 b43c 3f0e 863d 7067 dbbc a8bf bfbc
00000110: b91e 2abb e901 913c bef5 acbd 6ad4 b03c
00000120: a69e 6d3d fc35 92bd 2c79 cebc 3eb8 9fbc
00000130: 6172 bd3b 2c8d 5cbd 0079 13bd a1ea 283b
00000140: e622 cfbc 2b56 953c fd87 4c3d b140 3fbd
00000150: b725 cb3d 4c99 563c 62c1 7c3c 8eb2 193d
00000160: 2c9c a1bb d48e 5b3c c5e3 9b3d ddda 113c
00000170: 796d ad39 27e9 a93c ff63 253d 4a30 3cbd
00000180: 19fc a73b c607 aa3b 56fa fcba 0344 c73c
00000190: d45a 923d 6610 b53c 3aad 8f3d c2a7 3a3d
000001a0: 91a3 62bc b49f f0bc 097a 29bd f971 91bb
000001b0: 0ab2 5c3d 8928 de3b c190 26bc 2fba bc3c
000001c0: 6481 48bd e60a a23b ee6d a0bc a242 da3c
000001d0: 1090 5dbd 923a a63c ffbd 09bd f8c4 f03b

model.linear_layers.1.linear.weight f4 [84, 120]
0.05161062 -0.0041634166 -0.078606255 0.08138329 -0.054368902 0.053110592 0.06747335 0.0036279862
-0.10233006 -0.06826442 0.045725994 0.1122489 -0.009552736 0.061174914 0.020258477 0.032237742
0.07350679 0.004464889 0.05226499 -0.009250038 -0.06689755 0.118364364 -0.050179 0.073460944
-0.07314065 -0.019505048 0.09089581 0.11686263 -0.04999607 -0.00929002 0.020939244 0.12359161
0.0036860325 -0.08481103 0.03801192 0.08526558 0.06678834 0.004356707 -0.049779236 0.052850626
-0.15046535 -0.019173423 -0.13126443 -0.00026078345 0.09426383 -0.059233736 0.04038795 0.04092133
-0.015235349 0.062209148 0.10369852 0.103055194 -0.0201803 -0.005907438 0.018074488 -0.02829221
0.05302818 0.123912826 0.014988662 0.04412808 0.030961439 -0.11807618 -0.004470002 0.07079334
0.010737232 0.07080219 -0.07240507 -0.015592611 0.18911232 -0.034592707 -0.06983031 -0.055123117
0.061749347 0.018711768 -0.011881938 0.062131256 0.08717702 -0.07740744 0.06424418 -0.03138393
0.016386308 -0.026434395 -0.09572134 -0.022761527 0.10734871 0.0865018 0.09720042 -0.026135817
0.10357623 -0.0179362 0.101749696 0.11213797 0.10386547 -0.09402984 -0.023573132 0.016059972
0.009839813 0.073622465 -0.019153647 -0.015038548 0.10690867 -0.0906447 0.019738004 -0.010398577
0.17579618 0.22629099 -0.11828024 -0.03614153 0.07721529 -0.0038287912 -0.015112202 0.07307493
0.08884813 0.033996433 0.07844707 0.08333509 -0.026460515 -0.03661123 -0.03446734 0.03388218
0.09900591 -0.027133033 -0.1122412 -0.057414412 -0.046077453 0.029458765 -0.04709678 0.06105018
0.019963372 -0.05800017 0.036610786 0.056318697 -0.008526358 -0.063746706 0.007503377 0.008557118
-0.038982444 0.02508537 0.05975491 0.041192457 -0.010319486 0.04508759 0.10607252 0.030237569
0.08040457 0.06680539 0.046170034 0.009200245 -0.14815518 0.031031672 -0.13324839 -0.10402209
0.09031228 0.095076434 0.075982116 -0.046189927 0.048614327 -0.03365506 -0.05336404 -0.015511555
-0.053318553 0.039254718 0.06898864 -0.1269937 0.02041295 0.08990189 0.04200086 0.03141726
-0.0022627248 -0.006204285 -0.10969642 -0.13453178 -0.025783285 0.09541121 -0.05752582 -0.08201879
-0.080185205 0.0826638 -0.007813444 0.10325014 0.09577958 0.03787228 -0.045644972 0.009133071
0.04437014 0.040460397 -0.07442045 -0.13592055 -0.029655395 -0.08330279 -0.055969194 0.049120188
-0.11319015 -0.06363956 0.007675098 -0.018290136 -0.000797759 0.03961716 0.10821068 -0.038616896
-0.06943987 -0.04184392 0.088422835 0.06180619 0.028441463 -0.03165012 0.11661261 -0.04856308
-0.05262584 0.042809155 0.04539385 -0.060282033 0.042015802 -0.15212503 0.04840138 -0.039499883
0.134363 -0.08358882 0.052908078 -0.013886509 -0.0178628 -0.0011832226 0.07568994 -0.075938955
0.09590529 -0.12757409 0.12247555 -0.038170323 0.052407924 0.067196816 -0.022299413 -0.053023934
0.05819549 0.1074429 0.09127195 0.04607942 -0.011472946 -0.06006755 -0.0056114113 -0.06684437
0.0982539 -0.0058496385 0.07017155 0.011102771 0.07570723 0.11950586 0.067639254 -0.052517485
-0.02706529 0.020175233 -0.008145275 -0.10182196 0.02328751 0.11208234 0.045613248 0.07979592
00000000: a865 533d 456d 88bb 51fc a0bd 48ac a63d
00000010: edb1 5ebd 7e8a 593d 782f 8a3d 82c3 6d3b
00000020: 6c92 d1bd 37ce 8bbd 2e4b 3b3d c0e2 e53d
00000030: 1483 1cbc 8c92 7a3d 1bf5 a53c b90b 043d
00000040: ba8a 963d 344e 923b d013 563d 798d 17bc
00000050: 9501 89bd 0469 f23d 7f88 4dbd b172 963d
00000060: c4ca 95bd 0dc9 9fbc 9527 ba3d ad55 ef3d
00000070: aec8 4cbd 2b35 18bc c788 ab3c 991d fd3d
00000080: 5d91 713b 68b1 adbd 63b2 1b3d b89f ae3d
00000090: 53c8 883d b5c2 8e3b 50e5 4bbd e679 583d
000000a0: 9713 1abe 9511 9dbc 2f6a 06be c3b9 88b9
000000b0: 650d c13d 139f 72bd d66d 253d 209d 273d
000000c0: af9d 79bc 05cf 7e3d e45f d43d 9a0e d33d
000000d0: 2851 a5bc 2f93 c1bb f310 943c 11c5 e7bc
000000e0: 1434 593d 02c6 fd3d 0193 753c a5bf 343d
000000f0: d8a2 fd3c edd1 f1bd 1879 92bb 19fc 903d
00000100: 37eb 2f3c bd00 913d 1c49 94bd 2778 7fbc
00000110: a9a6 413e 15b1 0dbd 3203 8fbd c7c8 61bd
00000120: e2ec 7c3d 6c49 993c 76ac 42bc 587d 7e3d
00000130: de89 b23d cb87 9ebd 7492 833d 708c 00bd
00000140: 943c 863c f28c d8bc 8d09 c4bd 6276 babc
00000150: a4d9 db3d db27 b13d 0411 c73d c81a d6bc
00000160: c61f d43d f0ee 92bc 2562 d03d 98a8 e53d
00000170: 6bb7 d43d b792 c0bd 711c c1bc 3490 833c
00000180: 2b37 213c 60c7 963d 1ce8 9cbc 3e64 76bc
00000190: eff2 da3d eea3 b9bd 98b1 a13c cb5e 2abc
000001a0: ea03 343e d3b8 673e e93c f2bd 2409 14bd
000001b0: 0d23 9e3d 75ec 7abb 2b99 77bc 4fa8 953d
000001c0: 02f6 b53d d83f 0b3d dca8 a03d 96ab aa3d
000001d0: b9c3 d8bc a8f5 15bd a02d 0dbd 0ac8 0a3d
000001e0: 9cc3 ca3d 1846 debc b7de e5bd 602b 6bbd
000001f0: b6bb 3cbd 8253 f13c 8ee8 40bd c10f 7a3d
00000200: 3a8a a33c 9691 6dbd 31f5 153d 6fae 663d
00000210: 23b2 0bbc a28d 82bd e3de f53b 2733 0c3c
00000220: 0eac 1fbd d57f cd3c 91c1 743d 6cb9 283d
00000230: 1013 29bc c4ad 383d 8d3c d93d c7b4 f73c
00000240: 27ab a43d 44d1 883d ca1c 3d3d a0bc 163c
00000250: feb5 17be 2236 fe3c 4472 08be 8909 d5bd
00000260: a5f5 b83d 6fb7 c23d 839c 9b3d a631 3dbd
00000270: d11f 473d e3d9 09bd 4094 5abd 2d24 7ebc
00000280: 8e64 5abd 8ec9 203d eb49 8d3d a30a 02be
00000290: 0f39 a73c 7b1e b83d 1809 2c3d 63af 003d
000002a0: 394a 14bb 514d cbbb 84a8 e0bd b3c2 09be
000002b0: 7837 d3bc f466 c33d 32a0 6bbd 78f9 a7bd
000002c0: 2438 a4bd a34b a93d f603 00bc cf74 d33d
000002d0: 1628 c43d f71f 1b3d 39f6 3abd e0a2 153c
000002e0: 77bd 353d cdb9 253d c069 98bd c22e 0bbe
000002f0: dfef f2bc a79a aabd f43f 65bd 4032 493d
00000300: 3dd0 e7bd 7555 82bd 637f fb3b 32d5 95bc
00000310: b320 51ba 9a45 223d 909d dd3d c02c 1ebd
00000320: 7e36 8ebd 8864 2bbd 0817 b53d 7d28 7d3d
00000330: 12fe e83c 8ea3 01bd 98d2 ee3d 15ea 46bd
00000340: 318e 57bd a758 2f3d e7ee 393d 4bea 76bd
00000350: c318 2c3d aac6 1bbe 8740 463d a1ca 21bd
00000360: 7496 093e 9e30 abbd 24b6 583d 3e84 63bc
00000370: 0255 92bc 5d16 9bba 5403 9b3d e285 9bbd
00000380: fe69 c43d c8a2 02be 76d4 fa3d 7c58 1cbd
00000390: b1a9 563d 7c9e 893d 42ad b6bc a02f 59bd
000003a0: 655e 6e3d 060b dc3d caec ba3d c6bd 3c3d
000003b0: 06f9 3bbc 6409 76bd eedf b7bb b3e5 88bd
000003c0: 5739 c93d 53ae bfbb 1ab6 8f3d 66e8 353c
000003d0: 640c 9b3d 7dbf f43d 7386 8a3d 931c 57bd
000003e0: 07b8 ddbc 8846 a53c c273 05bc 0888 d0bd
000003f0: 73c5 be3c 6d8b e53d f5d4 3a3d 0b6c a33d

model.linear_layers.1.linear.bias f4 [84]
0.011961714 0.06838993 0.072112724 0.043906704 -0.1016051 -0.005201729 -0.048284348 0.05901927
-0.051061913 -0.022068668 0.04832647 0.07938245 0.11042027 0.0035295738 -0.06114876 0.053209774
-0.017415611 -0.11440608 0.085860275 0.06493068 -0.013827728 0.015837148 -0.021212295 -0.027948042
0.035214785 -0.00040392866 -0.00020971324 -0.012619649 -0.1152888 -0.02959507 0.079832636 -0.060786277
0.12082909 -0.019040778 0.041184995 -0.008784159 0.06678032 -0.023477314 0.06638997 -0.025918387
-0.028165989 -0.097745135 -0.0899367 0.089425616 0.098078296 0.022368915 0.0071474332 -0.076526225
0.051844183 -0.046923116 -0.1014998 0.06408109 -0.056089982 0.028355693 -0.07246924 0.074765615
-0.008735608 0.10591494 0.003630227 -0.055210695 -0.016799802 -0.049916722 -0.0049456162 0.10547706
0.14761475 0.10292215 -0.010306508 -0.07470135 0.09613869 -0.031243583 0.04496827 -0.0694531
-0.0963035 -0.08944451 0.13598749 0.0852517 0.058772784 -0.10144171 0.047423743 -0.014928843
-0.07370395 -0.060794152 0.12105765 -0.07349224
00000000: 11fb 433c 0510 8c3d d6af 933d 84d7 333d
00000010: 5616 d0bd 4473 aabb cfc5 45bd 31be 713d
00000020: 4c26 51bd 5ac9 b4bc faf1 453d 4493 a23d
00000030: 0624 e23d 6c50 673b 1f77 7abd 7ef2 593d
00000040: 2fab 8ebc bc4d eabd 83d7 af3d 60fa 843d
00000050: b28d 62bc e8bc 813c 68c5 adbc 4bf3 e4bc
00000060: 613d 103d 63c6 d3b9 78e6 5bb9 a5c2 4ebc
00000070: 891c ecbd 5c71 f2bc 4b7f a33d 08fb 78bd
00000080: 3e75 f73d 68fb 9bbc 99b1 283d 6feb 0fbc
00000090: 1fc4 883d 7f53 c0bc 77f7 873d cc52 d4bc
000000a0: 5cbc e6bc 9a2e c8bd bc30 b8bd c724 b73d
000000b0: 46dd c83d 043f b73c 0435 ea3b c8b9 9cbd
000000c0: 915a 543d 7432 40bd 21df cfbd f23c 833d
000000d0: 9cbe 65bd 334a e83c c16a 94bd b71e 993d
000000e0: cc1f 0fbc efe9 d83d 1ae9 6d3b 9c24 62bd
000000f0: bd9f 89bc 7a75 4cbd d60e a2bb 5b04 d83d
00000100: 5228 173e d9c8 d23d a1dc 28bc 05fd 98bd
00000110: 5de4 c43d 8bf2 ffbc a630 383d 6d3d 8ebd
00000120: c53a c5bd af2e b7bd 4e40 0b3e 7198 ae3d
00000130: bbbb 703d acc0 cfbd 663f 423d 1b98 74bc
00000140: 19f2 96bd 4a03 79bd 13ed f73d 1983 96bd

model.linear_layers.2.linear.weight f4 [10, 84]
0.076262906 -0.058346156 -0.15657347 -0.11518165 0.0130456425 -0.15497658 -0.090525016 0.009215175
0.054364253 -0.042044394 -0.1995366 0.105991475 -0.09617685 -0.0026317334 -0.07579875 0.1373573
-0.13319175 -0.09382971 -0.10753631 0.11111247 0.013564554 0.10412882 -0.09117588 0.09104212
0.10112869 -0.15234756 -0.03136098 -0.071445994 0.013816302 -0.06129248 0.12022267 0.12118816
0.15367359 -0.06664811 0.12709117 0.027619142 -0.08895464 0.04514281 0.10135752 -0.014931757
0.058992807 0.021919843 0.05822697 -0.044644907 -0.14273688 -0.14889213 -0.08599205 -0.073602326
-0.0009081147 0.07058568 -0.112621 -0.11801677 -0.027360128 0.05639774 -0.03716643 0.107277185
0.018833706 -0.14488174 0.13168842 0.09034256 0.13740106 -0.113033794 -0.012850739 -0.046880897
-0.1796237 -0.15595399 0.023700489 -0.076658666 -0.08666205 0.0041584214 -0.08474457 -0.055510517
-0.08757563 -0.035141844 -0.13196802 0.10947756 0.117169134 -0.086591154 -0.075397216 0.027472394
0.008829387 -0.0059949975 -0.12197613 -0.13190278 -0.117763124 -0.11036804 0.15811667 -0.17122734
0.045362584 0.081019886 -0.053165767 -0.1407918 0.08182307 0.03592858 0.14169058 0.14325456
0.14066073 0.05432056 0.10352358 0.039510787 0.042673655 -0.014766872 -0.046149395 -0.1959842
-0.007610197 -0.05653908 -0.07630792 -0.20198898 -0.09716734 -0.14839728 -0.06440653 -0.031380255
0.052636076 -0.08669771 -0.13613786 0.11349187 -0.049403694 -0.053122103 0.0136447335 -0.2060005
-0.19609822 0.09671451 0.17254217 0.036165465 0.052504484 0.071534336 0.067980096 -0.1435727
-0.1357527 0.026760368 -0.0158913 0.105924465 0.09299773 0.113887645 -0.007362557 0.21597795
0.054908164 -0.16233921 -0.08120062 0.16975369 0.10118132 0.07392458 -0.106958345 0.29778945
-0.017202653 0.056874618 -0.02824012 -0.1112685 0.13082501 0.10247818 0.14262497 0.019800074
0.00088044256 0.022897717 -0.074734405 -0.12728351 -0.06505143 0.017503643 -0.13350365 0.05899068
0.037101682 -0.016070243 -0.08284352 -0.23116465 -0.0049178703 0.14925954 -0.009740916 0.16282663
0.058005285 0.14423499 -0.057728536 -0.00974528 -0.045243178 -0.122222275 0.04330235 0.062826395
-0.0829894 -0.0830046 0.10590066 -0.25887564 -0.14453241 -0.1386337 0.102030724 -0.0140607655
-0.16864148 -0.018674722 -0.12326222 0.030931909 0.09249719 -0.15516923 -0.076815896 -0.12829551
0.102621816 -0.15548739 0.036826298 0.071866676 0.020640843 -0.13347356 0.010849938 -0.14537083
0.06291938 -0.092951775 0.025707217 -0.04619297 -0.0074844016 -0.04494192 -0.18675824 -0.0035590245
0.12364969 0.06970254 0.077524394 -0.0071584103 -0.06260405 -0.13888358 0.05076532 -0.011637117
-0.033474047 -0.23725484 0.010028501 -0.13395496 0.0026272465 -0.014388095 0.06527029 0.11797368
-0.044620883 -0.044819765 0.099781185 0.038209856 0.021152653 0.08430336 0.021962658 0.14078799
0.049224474 0.053437714 0.20718277 0.040805213 0.14521036 -0.07368852 0.055242423 0.10618674
-0.060334966 -0.076543115 -0.10002249 -0.05086402 0.009445424 -0.015527765 0.10496293 0.09761809
0.010336903 0.05802775 -0.076252185 0.08600227 -0.08351011 -0.07180879 -0.06814978 0.025592137
00000000: ba2f 9c3d 61fc 6ebd cc54 20be 5be4 ebbd
00000010: 64bd 553c 2eb2 1ebe 2e65 b9bd 3ffb 163c
00000020: 0dad 5e3d be36 2cbd 5353 4cbe 0f12 d93d
00000030: 5ef8 c4bd 2979 2cbb 603c 9bbd 64a7 0c3e
00000040: 6b63 08be ca29 c0bd ff3b dcbd ef8e e33d
00000050: dd3d 5e3c 7e41 d53d 6bba babd 4a74 ba3d
00000060: 8f1c cf3d 0001 1cbe 5f74 00bd 4752 92bd
00000070: c55d 623c d30d 7bbd 4e37 f63d 7f31 f83d
00000080: 9c5c 1d3e ce7e 88bd 3024 023e 8a41 e23c
00000090: da2d b6bd abe7 383d 8894 cf3d 54a4 74bc
000000a0: 71a2 713d 3e91 b33c 677f 6e3d 94dd 36bd
000000b0: 9e29 12be 2e77 18be 9a1c b0bd d1bc 96bd
000000c0: 8c0e 6eba 3a8f 903d d7a5 e6bd c7b2 f1bd
000000d0: 5922 e0bc 5101 673d d43b 18bd 24b4 db3d
000000e0: 2549 9a3c e15b 14be 54d9 063e 8505 b93d
000000f0: ddb2 0c3e 437e e7bd e88b 52bc 2f06 40bd
00000100: 46ef 37be 67b2 1fbe 8727 c23c 38ff 9cbd
00000110: df7b b1bd 5e43 883b 908e adbd ff5e 63bd
00000120: da5a b3bd e5f0 0fbd a022 07be c535 e03d
00000130: 5ff6 ef3d b456 b1bd db69 9abd c90d e13c
00000140: 22a9 103c af71 c4bb 9fce f9bd 8611 07be
00000150: cb2d f1bd a408 e2bd 56e9 213e 3856 2fbe
00000160: 1ece 393d c1ed a53d 59c4 59bd ba2b 10be
00000170: db92 a73d d929 133d 5617 113e 53b1 123e
00000180: 5e09 103e 3c7f 5e3d 2c04 d43d 10d6 213d
00000190: 92ca 2e3d c0f0 71bc 2607 3dbd 15b0 48be
000001a0: f65e f9bb 8695 67bd 5447 9cbd 33d6 4ebe
000001b0: acff c6bd 75f5 17be 92e7 83bd 9588 00bd
000001c0: ed98 573d 928e b1bd b967 0bbe 6d6e e83d
000001d0: 875b 4abd 9096 59bd 298e 5f3c ccf1 52be
000001e0: f9cd 48be 4212 c63d e5ae 303e 3d22 143d
000001f0: f10e 573d 9880 923d 2639 8b3d b904 13be
00000200: c102 0bbe 8f38 db3c 792e 82bc edee d83d
00000210: 9875 be3d ed3d e93d 9b41 f1bb 5329 5d3e
00000220: 62e7 603d 403c 26be 834c a6bd e9d3 2d3e
00000230: 2738 cf3d c565 973d fa0c dbbd dc77 983e
00000240: 94ec 8cbc 5cf5 683d d357 e7bc bde0 e3bd
00000250: fef6 053e 14e0 d13d 480c 123e c433 a23c
00000260: 80cd 663a fe93 bb3c 5a0e 99bd 9c56 02be
00000270: af39 85bd cd63 8f3c 2eb5 08be 36a0 713d
00000280: eff7 173d bea5 83bc dda9 a9bd 6db6 6cbe
00000290: 1626 a1bb 7ed7 183e 5d98 1fbc 06bc 263e
000002a0: f396 6d3d 56b2 133e c274 6cbd abaa 1fbc
000002b0: e950 39bd ac4f fabd ce5d 313d 20ab 803d
000002c0: 59f6 a9bd 51fe a9bd 72e2 d83d 598b 84be
000002d0: 4e00 14be fef5 0dbe 7cf5 d03d 205f 66bc
000002e0: 5ab0 2cbe bbfb 98bc e770 fcbd ea64 fd3c
000002f0: 2b6f bd3d afe4 1ebe a751 9dbd e65f 03be
00000300: 632b d23d 1638 1fbe 2cd7 163d d62e 933d
00000310: fc16 a93c 4bad 08be f0c3 313c 17dc 14be
00000320: e0db 803d 805d bebd f197 d23c d734 3dbd
00000330: b63f f5bb 0515 38bd 8d3d 3fbe 863e 69bb
00000340: 0c3c fd3d 35c0 8e3d 1cc5 9e3d 1991 eabb
00000350: 8d36 80bd 7f37 0ebe 4cef 4f3d 9ba9 3ebc
00000360: 151c 09bd eff2 72be 954e 243c 7d2b 09be
00000370: e22d 2c3b 0bbc 6bbc 6eac 853d 2f9c f13d
00000380: 63c4 36bd ee94 37bd 145a cc3d f081 1c3d
00000390: 5448 ad3c 3da7 ac3d 08eb b33c ba2a 103e
000003a0: 9a9f 493d 81e1 5a3d b827 543e 5e23 273d
000003b0: 06b2 143e 02ea 96bd e145 623d 6f78 d93d
000003c0: cc21 77bd a3c2 9cbd 97d8 ccbd ca56 50bd
000003d0: fbc0 1a3c 2b68 7ebc cef6 d63d feeb c73d
000003e0: 1d5c 293c 82ae 6d3d 1b2a 9cbd f521 b03d
000003f0: 5907 abbd 7d10 93bd 1d92 8bbd 9aa6 d13c

model.linear_layers.2.linear.bias f4 [10]
0.07815442 0.030768264 0.04991696 0.07769737 -0.07133183 -0.053572014 0.049432673 -0.007828224
0.06878288 0.031051842
00000000: 6d0f a03d ba0d fc3c ba75 4c3d cc1f 9f3d
00000010: 6c16 92bd 546e 5bbd ea79 4a3d f441 00bc
00000020: 0ade 8c3d 6f60 fe3c
